{"format": "graph-model", "generatedBy": "2.6.0", "convertedBy": "TensorFlow.js Converter v3.9.0", "signature": {"inputs": {"input": {"name": "input:0", "dtype": "DT_FLOAT", "tensorShape": {"dim": [{"size": "1"}, {"size": "256"}, {"size": "256"}, {"size": "3"}]}}}, "outputs": {"tf.identity": {"name": "Identity:0", "dtype": "DT_FLOAT", "tensorShape": {"dim": [{"size": "1"}, {"size": "32"}, {"size": "32"}, {"size": "672"}]}}}}, "modelTopology": {"node": [{"name": "StatefulPartitionedCall/model/p_re_lu_81/Neg", "op": "Const", "attr": {"dtype": {"type": "DT_FLOAT"}, "value": {"tensor": {"dtype": "DT_FLOAT", "tensorShape": {"dim": [{"size": "1"}, {"size": "1"}, {"size": "256"}]}}}}}, {"name": "StatefulPartitionedCall/model/p_re_lu_79/Neg", "op": "Const", "attr": {"value": {"tensor": {"dtype": "DT_FLOAT", "tensorShape": {"dim": [{"size": "1"}, {"size": "1"}, {"size": "48"}]}}}, "dtype": {"type": "DT_FLOAT"}}}, {"name": "StatefulPartitionedCall/model/p_re_lu_77/Neg", "op": "Const", "attr": {"dtype": {"type": "DT_FLOAT"}, "value": {"tensor": {"dtype": "DT_FLOAT", "tensorShape": {"dim": [{"size": "1"}, {"size": "1"}, {"size": "256"}]}}}}}, {"name": "StatefulPartitionedCall/model/p_re_lu_75/Neg", "op": "Const", "attr": {"value": {"tensor": {"dtype": "DT_FLOAT", "tensorShape": {"dim": [{"size": "1"}, {"size": "1"}, {"size": "64"}]}}}, "dtype": {"type": "DT_FLOAT"}}}, {"name": "StatefulPartitionedCall/model/p_re_lu_73/Neg", "op": "Const", "attr": {"value": {"tensor": {"dtype": "DT_FLOAT", "tensorShape": {"dim": [{"size": "1"}, {"size": "1"}, {"size": "256"}]}}}, "dtype": {"type": "DT_FLOAT"}}}, {"name": "StatefulPartitionedCall/model/p_re_lu_71/Neg", "op": "Const", "attr": {"value": {"tensor": {"dtype": "DT_FLOAT", "tensorShape": {"dim": [{"size": "1"}, {"size": "1"}, {"size": "96"}]}}}, "dtype": {"type": "DT_FLOAT"}}}, {"name": "StatefulPartitionedCall/model/p_re_lu_69/Neg", "op": "Const", "attr": {"dtype": {"type": "DT_FLOAT"}, "value": {"tensor": {"dtype": "DT_FLOAT", "tensorShape": {"dim": [{"size": "1"}, {"size": "1"}, {"size": "2048"}]}}}}}, {"name": "StatefulPartitionedCall/model/p_re_lu_67/Neg", "op": "Const", "attr": {"value": {"tensor": {"dtype": "DT_FLOAT", "tensorShape": {"dim": [{"size": "1"}, {"size": "1"}, {"size": "960"}]}}}, "dtype": {"type": "DT_FLOAT"}}}, {"name": "StatefulPartitionedCall/model/p_re_lu_65/Neg", "op": "Const", "attr": {"value": {"tensor": {"dtype": "DT_FLOAT", "tensorShape": {"dim": [{"size": "1"}, {"size": "1"}, {"size": "960"}]}}}, "dtype": {"type": "DT_FLOAT"}}}, {"name": "StatefulPartitionedCall/model/p_re_lu_63/Neg", "op": "Const", "attr": {"dtype": {"type": "DT_FLOAT"}, "value": {"tensor": {"dtype": "DT_FLOAT", "tensorShape": {"dim": [{"size": "1"}, {"size": "1"}, {"size": "960"}]}}}}}, {"name": "StatefulPartitionedCall/model/p_re_lu_61/Neg", "op": "Const", "attr": {"value": {"tensor": {"dtype": "DT_FLOAT", "tensorShape": {"dim": [{"size": "1"}, {"size": "1"}, {"size": "960"}]}}}, "dtype": {"type": "DT_FLOAT"}}}, {"name": "StatefulPartitionedCall/model/p_re_lu_59/Neg", "op": "Const", "attr": {"value": {"tensor": {"dtype": "DT_FLOAT", "tensorShape": {"dim": [{"size": "1"}, {"size": "1"}, {"size": "960"}]}}}, "dtype": {"type": "DT_FLOAT"}}}, {"name": "StatefulPartitionedCall/model/p_re_lu_57/Neg", "op": "Const", "attr": {"value": {"tensor": {"dtype": "DT_FLOAT", "tensorShape": {"dim": [{"size": "1"}, {"size": "1"}, {"size": "960"}]}}}, "dtype": {"type": "DT_FLOAT"}}}, {"name": "StatefulPartitionedCall/model/p_re_lu_55/Neg", "op": "Const", "attr": {"dtype": {"type": "DT_FLOAT"}, "value": {"tensor": {"dtype": "DT_FLOAT", "tensorShape": {"dim": [{"size": "1"}, {"size": "1"}, {"size": "576"}]}}}}}, {"name": "StatefulPartitionedCall/model/p_re_lu_53/Neg", "op": "Const", "attr": {"value": {"tensor": {"dtype": "DT_FLOAT", "tensorShape": {"dim": [{"size": "1"}, {"size": "1"}, {"size": "576"}]}}}, "dtype": {"type": "DT_FLOAT"}}}, {"name": "StatefulPartitionedCall/model/p_re_lu_51/Neg", "op": "Const", "attr": {"value": {"tensor": {"dtype": "DT_FLOAT", "tensorShape": {"dim": [{"size": "1"}, {"size": "1"}, {"size": "576"}]}}}, "dtype": {"type": "DT_FLOAT"}}}, {"name": "StatefulPartitionedCall/model/p_re_lu_49/Neg", "op": "Const", "attr": {"dtype": {"type": "DT_FLOAT"}, "value": {"tensor": {"dtype": "DT_FLOAT", "tensorShape": {"dim": [{"size": "1"}, {"size": "1"}, {"size": "576"}]}}}}}, {"name": "StatefulPartitionedCall/model/p_re_lu_47/Neg", "op": "Const", "attr": {"dtype": {"type": "DT_FLOAT"}, "value": {"tensor": {"dtype": "DT_FLOAT", "tensorShape": {"dim": [{"size": "1"}, {"size": "1"}, {"size": "576"}]}}}}}, {"name": "StatefulPartitionedCall/model/p_re_lu_45/Neg", "op": "Const", "attr": {"value": {"tensor": {"dtype": "DT_FLOAT", "tensorShape": {"dim": [{"size": "1"}, {"size": "1"}, {"size": "576"}]}}}, "dtype": {"type": "DT_FLOAT"}}}, {"name": "StatefulPartitionedCall/model/p_re_lu_43/Neg", "op": "Const", "attr": {"value": {"tensor": {"dtype": "DT_FLOAT", "tensorShape": {"dim": [{"size": "1"}, {"size": "1"}, {"size": "384"}]}}}, "dtype": {"type": "DT_FLOAT"}}}, {"name": "StatefulPartitionedCall/model/p_re_lu_41/Neg", "op": "Const", "attr": {"dtype": {"type": "DT_FLOAT"}, "value": {"tensor": {"dtype": "DT_FLOAT", "tensorShape": {"dim": [{"size": "1"}, {"size": "1"}, {"size": "384"}]}}}}}, {"name": "StatefulPartitionedCall/model/p_re_lu_39/Neg", "op": "Const", "attr": {"dtype": {"type": "DT_FLOAT"}, "value": {"tensor": {"dtype": "DT_FLOAT", "tensorShape": {"dim": [{"size": "1"}, {"size": "1"}, {"size": "384"}]}}}}}, {"name": "StatefulPartitionedCall/model/p_re_lu_37/Neg", "op": "Const", "attr": {"dtype": {"type": "DT_FLOAT"}, "value": {"tensor": {"dtype": "DT_FLOAT", "tensorShape": {"dim": [{"size": "1"}, {"size": "1"}, {"size": "384"}]}}}}}, {"name": "StatefulPartitionedCall/model/p_re_lu_35/Neg", "op": "Const", "attr": {"value": {"tensor": {"dtype": "DT_FLOAT", "tensorShape": {"dim": [{"size": "1"}, {"size": "1"}, {"size": "384"}]}}}, "dtype": {"type": "DT_FLOAT"}}}, {"name": "StatefulPartitionedCall/model/p_re_lu_33/Neg", "op": "Const", "attr": {"dtype": {"type": "DT_FLOAT"}, "value": {"tensor": {"dtype": "DT_FLOAT", "tensorShape": {"dim": [{"size": "1"}, {"size": "1"}, {"size": "384"}]}}}}}, {"name": "StatefulPartitionedCall/model/p_re_lu_31/Neg", "op": "Const", "attr": {"value": {"tensor": {"dtype": "DT_FLOAT", "tensorShape": {"dim": [{"size": "1"}, {"size": "1"}, {"size": "384"}]}}}, "dtype": {"type": "DT_FLOAT"}}}, {"name": "StatefulPartitionedCall/model/p_re_lu_29/Neg", "op": "Const", "attr": {"dtype": {"type": "DT_FLOAT"}, "value": {"tensor": {"dtype": "DT_FLOAT", "tensorShape": {"dim": [{"size": "1"}, {"size": "1"}, {"size": "384"}]}}}}}, {"name": "StatefulPartitionedCall/model/p_re_lu_27/Neg", "op": "Const", "attr": {"value": {"tensor": {"dtype": "DT_FLOAT", "tensorShape": {"dim": [{"size": "1"}, {"size": "1"}, {"size": "288"}]}}}, "dtype": {"type": "DT_FLOAT"}}}, {"name": "StatefulPartitionedCall/model/p_re_lu_25/Neg", "op": "Const", "attr": {"dtype": {"type": "DT_FLOAT"}, "value": {"tensor": {"dtype": "DT_FLOAT", "tensorShape": {"dim": [{"size": "1"}, {"size": "1"}, {"size": "288"}]}}}}}, {"name": "StatefulPartitionedCall/model/p_re_lu_23/Neg", "op": "Const", "attr": {"dtype": {"type": "DT_FLOAT"}, "value": {"tensor": {"dtype": "DT_FLOAT", "tensorShape": {"dim": [{"size": "1"}, {"size": "1"}, {"size": "288"}]}}}}}, {"name": "StatefulPartitionedCall/model/p_re_lu_21/Neg", "op": "Const", "attr": {"value": {"tensor": {"dtype": "DT_FLOAT", "tensorShape": {"dim": [{"size": "1"}, {"size": "1"}, {"size": "288"}]}}}, "dtype": {"type": "DT_FLOAT"}}}, {"name": "StatefulPartitionedCall/model/p_re_lu_19/Neg", "op": "Const", "attr": {"value": {"tensor": {"dtype": "DT_FLOAT", "tensorShape": {"dim": [{"size": "1"}, {"size": "1"}, {"size": "288"}]}}}, "dtype": {"type": "DT_FLOAT"}}}, {"name": "StatefulPartitionedCall/model/p_re_lu_17/Neg", "op": "Const", "attr": {"value": {"tensor": {"dtype": "DT_FLOAT", "tensorShape": {"dim": [{"size": "1"}, {"size": "1"}, {"size": "288"}]}}}, "dtype": {"type": "DT_FLOAT"}}}, {"name": "StatefulPartitionedCall/model/p_re_lu_15/Neg", "op": "Const", "attr": {"value": {"tensor": {"dtype": "DT_FLOAT", "tensorShape": {"dim": [{"size": "1"}, {"size": "1"}, {"size": "288"}]}}}, "dtype": {"type": "DT_FLOAT"}}}, {"name": "StatefulPartitionedCall/model/p_re_lu_13/Neg", "op": "Const", "attr": {"dtype": {"type": "DT_FLOAT"}, "value": {"tensor": {"dtype": "DT_FLOAT", "tensorShape": {"dim": [{"size": "1"}, {"size": "1"}, {"size": "288"}]}}}}}, {"name": "StatefulPartitionedCall/model/p_re_lu_11/Neg", "op": "Const", "attr": {"dtype": {"type": "DT_FLOAT"}, "value": {"tensor": {"dtype": "DT_FLOAT", "tensorShape": {"dim": [{"size": "1"}, {"size": "1"}, {"size": "288"}]}}}}}, {"name": "StatefulPartitionedCall/model/p_re_lu_9/Neg", "op": "Const", "attr": {"value": {"tensor": {"dtype": "DT_FLOAT", "tensorShape": {"dim": [{"size": "1"}, {"size": "1"}, {"size": "288"}]}}}, "dtype": {"type": "DT_FLOAT"}}}, {"name": "StatefulPartitionedCall/model/p_re_lu_7/Neg", "op": "Const", "attr": {"value": {"tensor": {"dtype": "DT_FLOAT", "tensorShape": {"dim": [{"size": "1"}, {"size": "1"}, {"size": "384"}]}}}, "dtype": {"type": "DT_FLOAT"}}}, {"name": "StatefulPartitionedCall/model/p_re_lu_5/Neg", "op": "Const", "attr": {"value": {"tensor": {"dtype": "DT_FLOAT", "tensorShape": {"dim": [{"size": "1"}, {"size": "1"}, {"size": "384"}]}}}, "dtype": {"type": "DT_FLOAT"}}}, {"name": "StatefulPartitionedCall/model/p_re_lu_3/Neg", "op": "Const", "attr": {"dtype": {"type": "DT_FLOAT"}, "value": {"tensor": {"dtype": "DT_FLOAT", "tensorShape": {"dim": [{"size": "1"}, {"size": "1"}, {"size": "48"}]}}}}}, {"name": "StatefulPartitionedCall/model/p_re_lu_1/Neg", "op": "Const", "attr": {"value": {"tensor": {"dtype": "DT_FLOAT", "tensorShape": {"dim": [{"size": "1"}, {"size": "1"}, {"size": "48"}]}}}, "dtype": {"type": "DT_FLOAT"}}}, {"name": "StatefulPartitionedCall/model/zero_padding2d/Pad/paddings", "op": "Const", "attr": {"value": {"tensor": {"dtype": "DT_INT32", "tensorShape": {"dim": [{"size": "4"}, {"size": "2"}]}}}, "dtype": {"type": "DT_INT32"}}}, {"name": "StatefulPartitionedCall/model/conv2d/Conv2D/ReadVariableOp", "op": "Const", "attr": {"dtype": {"type": "DT_FLOAT"}, "value": {"tensor": {"dtype": "DT_FLOAT", "tensorShape": {"dim": [{"size": "3"}, {"size": "3"}, {"size": "3"}, {"size": "48"}]}}}}}, {"name": "StatefulPartitionedCall/model/tf.math.add/Add/y", "op": "Const", "attr": {"value": {"tensor": {"dtype": "DT_FLOAT", "tensorShape": {"dim": [{"size": "48"}]}}}, "dtype": {"type": "DT_FLOAT"}}}, {"name": "StatefulPartitionedCall/model/zero_padding2d_1/Pad/paddings", "op": "Const", "attr": {"value": {"tensor": {"dtype": "DT_INT32", "tensorShape": {"dim": [{"size": "4"}, {"size": "2"}]}}}, "dtype": {"type": "DT_INT32"}}}, {"name": "StatefulPartitionedCall/model/depthwise_conv2d/depthwise/ReadVariableOp", "op": "Const", "attr": {"value": {"tensor": {"dtype": "DT_FLOAT", "tensorShape": {"dim": [{"size": "3"}, {"size": "3"}, {"size": "48"}, {"size": "1"}]}}}, "dtype": {"type": "DT_FLOAT"}}}, {"name": "StatefulPartitionedCall/model/tf.math.add_1/Add/y", "op": "Const", "attr": {"value": {"tensor": {"dtype": "DT_FLOAT", "tensorShape": {"dim": [{"size": "48"}]}}}, "dtype": {"type": "DT_FLOAT"}}}, {"name": "StatefulPartitionedCall/model/conv2d_1/Conv2D/ReadVariableOp", "op": "Const", "attr": {"value": {"tensor": {"dtype": "DT_FLOAT", "tensorShape": {"dim": [{"size": "1"}, {"size": "1"}, {"size": "48"}, {"size": "64"}]}}}, "dtype": {"type": "DT_FLOAT"}}}, {"name": "StatefulPartitionedCall/model/tf.math.add_2/Add/y", "op": "Const", "attr": {"dtype": {"type": "DT_FLOAT"}, "value": {"tensor": {"dtype": "DT_FLOAT", "tensorShape": {"dim": [{"size": "64"}]}}}}}, {"name": "StatefulPartitionedCall/model/conv2d_2/Conv2D/ReadVariableOp", "op": "Const", "attr": {"dtype": {"type": "DT_FLOAT"}, "value": {"tensor": {"dtype": "DT_FLOAT", "tensorShape": {"dim": [{"size": "1"}, {"size": "1"}, {"size": "64"}, {"size": "384"}]}}}}}, {"name": "StatefulPartitionedCall/model/tf.math.add_3/Add/y", "op": "Const", "attr": {"dtype": {"type": "DT_FLOAT"}, "value": {"tensor": {"dtype": "DT_FLOAT", "tensorShape": {"dim": [{"size": "384"}]}}}}}, {"name": "StatefulPartitionedCall/model/zero_padding2d_2/Pad/paddings", "op": "Const", "attr": {"dtype": {"type": "DT_INT32"}, "value": {"tensor": {"dtype": "DT_INT32", "tensorShape": {"dim": [{"size": "4"}, {"size": "2"}]}}}}}, {"name": "StatefulPartitionedCall/model/depthwise_conv2d_1/depthwise/ReadVariableOp", "op": "Const", "attr": {"dtype": {"type": "DT_FLOAT"}, "value": {"tensor": {"dtype": "DT_FLOAT", "tensorShape": {"dim": [{"size": "3"}, {"size": "3"}, {"size": "384"}, {"size": "1"}]}}}}}, {"name": "StatefulPartitionedCall/model/tf.math.add_4/Add/y", "op": "Const", "attr": {"value": {"tensor": {"dtype": "DT_FLOAT", "tensorShape": {"dim": [{"size": "384"}]}}}, "dtype": {"type": "DT_FLOAT"}}}, {"name": "StatefulPartitionedCall/model/conv2d_3/Conv2D/ReadVariableOp", "op": "Const", "attr": {"dtype": {"type": "DT_FLOAT"}, "value": {"tensor": {"dtype": "DT_FLOAT", "tensorShape": {"dim": [{"size": "1"}, {"size": "1"}, {"size": "384"}, {"size": "48"}]}}}}}, {"name": "StatefulPartitionedCall/model/tf.math.add_5/Add/y", "op": "Const", "attr": {"dtype": {"type": "DT_FLOAT"}, "value": {"tensor": {"dtype": "DT_FLOAT", "tensorShape": {"dim": [{"size": "48"}]}}}}}, {"name": "StatefulPartitionedCall/model/conv2d_4/Conv2D/ReadVariableOp", "op": "Const", "attr": {"dtype": {"type": "DT_FLOAT"}, "value": {"tensor": {"dtype": "DT_FLOAT", "tensorShape": {"dim": [{"size": "1"}, {"size": "1"}, {"size": "48"}, {"size": "288"}]}}}}}, {"name": "StatefulPartitionedCall/model/tf.math.add_6/Add/y", "op": "Const", "attr": {"value": {"tensor": {"dtype": "DT_FLOAT", "tensorShape": {"dim": [{"size": "288"}]}}}, "dtype": {"type": "DT_FLOAT"}}}, {"name": "StatefulPartitionedCall/model/zero_padding2d_3/Pad/paddings", "op": "Const", "attr": {"dtype": {"type": "DT_INT32"}, "value": {"tensor": {"dtype": "DT_INT32", "tensorShape": {"dim": [{"size": "4"}, {"size": "2"}]}}}}}, {"name": "StatefulPartitionedCall/model/depthwise_conv2d_2/depthwise/ReadVariableOp", "op": "Const", "attr": {"value": {"tensor": {"dtype": "DT_FLOAT", "tensorShape": {"dim": [{"size": "3"}, {"size": "3"}, {"size": "288"}, {"size": "1"}]}}}, "dtype": {"type": "DT_FLOAT"}}}, {"name": "StatefulPartitionedCall/model/tf.math.add_7/Add/y", "op": "Const", "attr": {"value": {"tensor": {"dtype": "DT_FLOAT", "tensorShape": {"dim": [{"size": "288"}]}}}, "dtype": {"type": "DT_FLOAT"}}}, {"name": "StatefulPartitionedCall/model/conv2d_5/Conv2D/ReadVariableOp", "op": "Const", "attr": {"dtype": {"type": "DT_FLOAT"}, "value": {"tensor": {"dtype": "DT_FLOAT", "tensorShape": {"dim": [{"size": "1"}, {"size": "1"}, {"size": "288"}, {"size": "48"}]}}}}}, {"name": "StatefulPartitionedCall/model/tf.math.add_8/Add/y", "op": "Const", "attr": {"value": {"tensor": {"dtype": "DT_FLOAT", "tensorShape": {"dim": [{"size": "48"}]}}}, "dtype": {"type": "DT_FLOAT"}}}, {"name": "StatefulPartitionedCall/model/conv2d_6/Conv2D/ReadVariableOp", "op": "Const", "attr": {"dtype": {"type": "DT_FLOAT"}, "value": {"tensor": {"dtype": "DT_FLOAT", "tensorShape": {"dim": [{"size": "1"}, {"size": "1"}, {"size": "48"}, {"size": "288"}]}}}}}, {"name": "StatefulPartitionedCall/model/tf.math.add_10/Add/y", "op": "Const", "attr": {"value": {"tensor": {"dtype": "DT_FLOAT", "tensorShape": {"dim": [{"size": "288"}]}}}, "dtype": {"type": "DT_FLOAT"}}}, {"name": "StatefulPartitionedCall/model/zero_padding2d_4/Pad/paddings", "op": "Const", "attr": {"value": {"tensor": {"dtype": "DT_INT32", "tensorShape": {"dim": [{"size": "4"}, {"size": "2"}]}}}, "dtype": {"type": "DT_INT32"}}}, {"name": "StatefulPartitionedCall/model/depthwise_conv2d_3/depthwise/ReadVariableOp", "op": "Const", "attr": {"value": {"tensor": {"dtype": "DT_FLOAT", "tensorShape": {"dim": [{"size": "3"}, {"size": "3"}, {"size": "288"}, {"size": "1"}]}}}, "dtype": {"type": "DT_FLOAT"}}}, {"name": "StatefulPartitionedCall/model/tf.math.add_11/Add/y", "op": "Const", "attr": {"value": {"tensor": {"dtype": "DT_FLOAT", "tensorShape": {"dim": [{"size": "288"}]}}}, "dtype": {"type": "DT_FLOAT"}}}, {"name": "StatefulPartitionedCall/model/conv2d_7/Conv2D/ReadVariableOp", "op": "Const", "attr": {"value": {"tensor": {"dtype": "DT_FLOAT", "tensorShape": {"dim": [{"size": "1"}, {"size": "1"}, {"size": "288"}, {"size": "48"}]}}}, "dtype": {"type": "DT_FLOAT"}}}, {"name": "StatefulPartitionedCall/model/tf.math.add_12/Add/y", "op": "Const", "attr": {"dtype": {"type": "DT_FLOAT"}, "value": {"tensor": {"dtype": "DT_FLOAT", "tensorShape": {"dim": [{"size": "48"}]}}}}}, {"name": "StatefulPartitionedCall/model/conv2d_8/Conv2D/ReadVariableOp", "op": "Const", "attr": {"value": {"tensor": {"dtype": "DT_FLOAT", "tensorShape": {"dim": [{"size": "1"}, {"size": "1"}, {"size": "48"}, {"size": "288"}]}}}, "dtype": {"type": "DT_FLOAT"}}}, {"name": "StatefulPartitionedCall/model/tf.math.add_13/Add/y", "op": "Const", "attr": {"value": {"tensor": {"dtype": "DT_FLOAT", "tensorShape": {"dim": [{"size": "288"}]}}}, "dtype": {"type": "DT_FLOAT"}}}, {"name": "StatefulPartitionedCall/model/zero_padding2d_5/Pad/paddings", "op": "Const", "attr": {"dtype": {"type": "DT_INT32"}, "value": {"tensor": {"dtype": "DT_INT32", "tensorShape": {"dim": [{"size": "4"}, {"size": "2"}]}}}}}, {"name": "StatefulPartitionedCall/model/depthwise_conv2d_4/depthwise/ReadVariableOp", "op": "Const", "attr": {"value": {"tensor": {"dtype": "DT_FLOAT", "tensorShape": {"dim": [{"size": "3"}, {"size": "3"}, {"size": "288"}, {"size": "1"}]}}}, "dtype": {"type": "DT_FLOAT"}}}, {"name": "StatefulPartitionedCall/model/tf.math.add_14/Add/y", "op": "Const", "attr": {"dtype": {"type": "DT_FLOAT"}, "value": {"tensor": {"dtype": "DT_FLOAT", "tensorShape": {"dim": [{"size": "288"}]}}}}}, {"name": "StatefulPartitionedCall/model/conv2d_9/Conv2D/ReadVariableOp", "op": "Const", "attr": {"value": {"tensor": {"dtype": "DT_FLOAT", "tensorShape": {"dim": [{"size": "1"}, {"size": "1"}, {"size": "288"}, {"size": "48"}]}}}, "dtype": {"type": "DT_FLOAT"}}}, {"name": "StatefulPartitionedCall/model/tf.math.add_15/Add/y", "op": "Const", "attr": {"dtype": {"type": "DT_FLOAT"}, "value": {"tensor": {"dtype": "DT_FLOAT", "tensorShape": {"dim": [{"size": "48"}]}}}}}, {"name": "StatefulPartitionedCall/model/conv2d_10/Conv2D/ReadVariableOp", "op": "Const", "attr": {"value": {"tensor": {"dtype": "DT_FLOAT", "tensorShape": {"dim": [{"size": "1"}, {"size": "1"}, {"size": "48"}, {"size": "288"}]}}}, "dtype": {"type": "DT_FLOAT"}}}, {"name": "StatefulPartitionedCall/model/tf.math.add_17/Add/y", "op": "Const", "attr": {"value": {"tensor": {"dtype": "DT_FLOAT", "tensorShape": {"dim": [{"size": "288"}]}}}, "dtype": {"type": "DT_FLOAT"}}}, {"name": "StatefulPartitionedCall/model/zero_padding2d_6/Pad/paddings", "op": "Const", "attr": {"dtype": {"type": "DT_INT32"}, "value": {"tensor": {"dtype": "DT_INT32", "tensorShape": {"dim": [{"size": "4"}, {"size": "2"}]}}}}}, {"name": "StatefulPartitionedCall/model/depthwise_conv2d_5/depthwise/ReadVariableOp", "op": "Const", "attr": {"dtype": {"type": "DT_FLOAT"}, "value": {"tensor": {"dtype": "DT_FLOAT", "tensorShape": {"dim": [{"size": "3"}, {"size": "3"}, {"size": "288"}, {"size": "1"}]}}}}}, {"name": "StatefulPartitionedCall/model/tf.math.add_18/Add/y", "op": "Const", "attr": {"value": {"tensor": {"dtype": "DT_FLOAT", "tensorShape": {"dim": [{"size": "288"}]}}}, "dtype": {"type": "DT_FLOAT"}}}, {"name": "StatefulPartitionedCall/model/conv2d_11/Conv2D/ReadVariableOp", "op": "Const", "attr": {"value": {"tensor": {"dtype": "DT_FLOAT", "tensorShape": {"dim": [{"size": "1"}, {"size": "1"}, {"size": "288"}, {"size": "48"}]}}}, "dtype": {"type": "DT_FLOAT"}}}, {"name": "StatefulPartitionedCall/model/tf.math.add_19/Add/y", "op": "Const", "attr": {"dtype": {"type": "DT_FLOAT"}, "value": {"tensor": {"dtype": "DT_FLOAT", "tensorShape": {"dim": [{"size": "48"}]}}}}}, {"name": "StatefulPartitionedCall/model/conv2d_12/Conv2D/ReadVariableOp", "op": "Const", "attr": {"dtype": {"type": "DT_FLOAT"}, "value": {"tensor": {"dtype": "DT_FLOAT", "tensorShape": {"dim": [{"size": "1"}, {"size": "1"}, {"size": "48"}, {"size": "288"}]}}}}}, {"name": "StatefulPartitionedCall/model/tf.math.add_21/Add/y", "op": "Const", "attr": {"value": {"tensor": {"dtype": "DT_FLOAT", "tensorShape": {"dim": [{"size": "288"}]}}}, "dtype": {"type": "DT_FLOAT"}}}, {"name": "StatefulPartitionedCall/model/zero_padding2d_7/Pad/paddings", "op": "Const", "attr": {"dtype": {"type": "DT_INT32"}, "value": {"tensor": {"dtype": "DT_INT32", "tensorShape": {"dim": [{"size": "4"}, {"size": "2"}]}}}}}, {"name": "StatefulPartitionedCall/model/depthwise_conv2d_6/depthwise/ReadVariableOp", "op": "Const", "attr": {"dtype": {"type": "DT_FLOAT"}, "value": {"tensor": {"dtype": "DT_FLOAT", "tensorShape": {"dim": [{"size": "3"}, {"size": "3"}, {"size": "288"}, {"size": "1"}]}}}}}, {"name": "StatefulPartitionedCall/model/tf.math.add_22/Add/y", "op": "Const", "attr": {"dtype": {"type": "DT_FLOAT"}, "value": {"tensor": {"dtype": "DT_FLOAT", "tensorShape": {"dim": [{"size": "288"}]}}}}}, {"name": "StatefulPartitionedCall/model/conv2d_13/Conv2D/ReadVariableOp", "op": "Const", "attr": {"dtype": {"type": "DT_FLOAT"}, "value": {"tensor": {"dtype": "DT_FLOAT", "tensorShape": {"dim": [{"size": "1"}, {"size": "1"}, {"size": "288"}, {"size": "64"}]}}}}}, {"name": "StatefulPartitionedCall/model/tf.math.add_23/Add/y", "op": "Const", "attr": {"value": {"tensor": {"dtype": "DT_FLOAT", "tensorShape": {"dim": [{"size": "64"}]}}}, "dtype": {"type": "DT_FLOAT"}}}, {"name": "StatefulPartitionedCall/model/conv2d_14/Conv2D/ReadVariableOp", "op": "Const", "attr": {"value": {"tensor": {"dtype": "DT_FLOAT", "tensorShape": {"dim": [{"size": "1"}, {"size": "1"}, {"size": "64"}, {"size": "384"}]}}}, "dtype": {"type": "DT_FLOAT"}}}, {"name": "StatefulPartitionedCall/model/tf.math.add_24/Add/y", "op": "Const", "attr": {"value": {"tensor": {"dtype": "DT_FLOAT", "tensorShape": {"dim": [{"size": "384"}]}}}, "dtype": {"type": "DT_FLOAT"}}}, {"name": "StatefulPartitionedCall/model/zero_padding2d_8/Pad/paddings", "op": "Const", "attr": {"dtype": {"type": "DT_INT32"}, "value": {"tensor": {"dtype": "DT_INT32", "tensorShape": {"dim": [{"size": "4"}, {"size": "2"}]}}}}}, {"name": "StatefulPartitionedCall/model/depthwise_conv2d_7/depthwise/ReadVariableOp", "op": "Const", "attr": {"value": {"tensor": {"dtype": "DT_FLOAT", "tensorShape": {"dim": [{"size": "3"}, {"size": "3"}, {"size": "384"}, {"size": "1"}]}}}, "dtype": {"type": "DT_FLOAT"}}}, {"name": "StatefulPartitionedCall/model/tf.math.add_25/Add/y", "op": "Const", "attr": {"value": {"tensor": {"dtype": "DT_FLOAT", "tensorShape": {"dim": [{"size": "384"}]}}}, "dtype": {"type": "DT_FLOAT"}}}, {"name": "StatefulPartitionedCall/model/conv2d_15/Conv2D/ReadVariableOp", "op": "Const", "attr": {"value": {"tensor": {"dtype": "DT_FLOAT", "tensorShape": {"dim": [{"size": "1"}, {"size": "1"}, {"size": "384"}, {"size": "64"}]}}}, "dtype": {"type": "DT_FLOAT"}}}, {"name": "StatefulPartitionedCall/model/tf.math.add_26/Add/y", "op": "Const", "attr": {"value": {"tensor": {"dtype": "DT_FLOAT", "tensorShape": {"dim": [{"size": "64"}]}}}, "dtype": {"type": "DT_FLOAT"}}}, {"name": "StatefulPartitionedCall/model/conv2d_16/Conv2D/ReadVariableOp", "op": "Const", "attr": {"dtype": {"type": "DT_FLOAT"}, "value": {"tensor": {"dtype": "DT_FLOAT", "tensorShape": {"dim": [{"size": "1"}, {"size": "1"}, {"size": "64"}, {"size": "384"}]}}}}}, {"name": "StatefulPartitionedCall/model/tf.math.add_28/Add/y", "op": "Const", "attr": {"value": {"tensor": {"dtype": "DT_FLOAT", "tensorShape": {"dim": [{"size": "384"}]}}}, "dtype": {"type": "DT_FLOAT"}}}, {"name": "StatefulPartitionedCall/model/zero_padding2d_9/Pad/paddings", "op": "Const", "attr": {"dtype": {"type": "DT_INT32"}, "value": {"tensor": {"dtype": "DT_INT32", "tensorShape": {"dim": [{"size": "4"}, {"size": "2"}]}}}}}, {"name": "StatefulPartitionedCall/model/depthwise_conv2d_8/depthwise/ReadVariableOp", "op": "Const", "attr": {"value": {"tensor": {"dtype": "DT_FLOAT", "tensorShape": {"dim": [{"size": "3"}, {"size": "3"}, {"size": "384"}, {"size": "1"}]}}}, "dtype": {"type": "DT_FLOAT"}}}, {"name": "StatefulPartitionedCall/model/tf.math.add_29/Add/y", "op": "Const", "attr": {"dtype": {"type": "DT_FLOAT"}, "value": {"tensor": {"dtype": "DT_FLOAT", "tensorShape": {"dim": [{"size": "384"}]}}}}}, {"name": "StatefulPartitionedCall/model/conv2d_17/Conv2D/ReadVariableOp", "op": "Const", "attr": {"dtype": {"type": "DT_FLOAT"}, "value": {"tensor": {"dtype": "DT_FLOAT", "tensorShape": {"dim": [{"size": "1"}, {"size": "1"}, {"size": "384"}, {"size": "64"}]}}}}}, {"name": "StatefulPartitionedCall/model/tf.math.add_30/Add/y", "op": "Const", "attr": {"value": {"tensor": {"dtype": "DT_FLOAT", "tensorShape": {"dim": [{"size": "64"}]}}}, "dtype": {"type": "DT_FLOAT"}}}, {"name": "StatefulPartitionedCall/model/conv2d_18/Conv2D/ReadVariableOp", "op": "Const", "attr": {"dtype": {"type": "DT_FLOAT"}, "value": {"tensor": {"dtype": "DT_FLOAT", "tensorShape": {"dim": [{"size": "1"}, {"size": "1"}, {"size": "64"}, {"size": "384"}]}}}}}, {"name": "StatefulPartitionedCall/model/tf.math.add_32/Add/y", "op": "Const", "attr": {"dtype": {"type": "DT_FLOAT"}, "value": {"tensor": {"dtype": "DT_FLOAT", "tensorShape": {"dim": [{"size": "384"}]}}}}}, {"name": "StatefulPartitionedCall/model/zero_padding2d_10/Pad/paddings", "op": "Const", "attr": {"value": {"tensor": {"dtype": "DT_INT32", "tensorShape": {"dim": [{"size": "4"}, {"size": "2"}]}}}, "dtype": {"type": "DT_INT32"}}}, {"name": "StatefulPartitionedCall/model/depthwise_conv2d_9/depthwise/ReadVariableOp", "op": "Const", "attr": {"value": {"tensor": {"dtype": "DT_FLOAT", "tensorShape": {"dim": [{"size": "3"}, {"size": "3"}, {"size": "384"}, {"size": "1"}]}}}, "dtype": {"type": "DT_FLOAT"}}}, {"name": "StatefulPartitionedCall/model/tf.math.add_33/Add/y", "op": "Const", "attr": {"value": {"tensor": {"dtype": "DT_FLOAT", "tensorShape": {"dim": [{"size": "384"}]}}}, "dtype": {"type": "DT_FLOAT"}}}, {"name": "StatefulPartitionedCall/model/conv2d_19/Conv2D/ReadVariableOp", "op": "Const", "attr": {"value": {"tensor": {"dtype": "DT_FLOAT", "tensorShape": {"dim": [{"size": "1"}, {"size": "1"}, {"size": "384"}, {"size": "64"}]}}}, "dtype": {"type": "DT_FLOAT"}}}, {"name": "StatefulPartitionedCall/model/tf.math.add_34/Add/y", "op": "Const", "attr": {"value": {"tensor": {"dtype": "DT_FLOAT", "tensorShape": {"dim": [{"size": "64"}]}}}, "dtype": {"type": "DT_FLOAT"}}}, {"name": "StatefulPartitionedCall/model/conv2d_20/Conv2D/ReadVariableOp", "op": "Const", "attr": {"dtype": {"type": "DT_FLOAT"}, "value": {"tensor": {"dtype": "DT_FLOAT", "tensorShape": {"dim": [{"size": "1"}, {"size": "1"}, {"size": "64"}, {"size": "384"}]}}}}}, {"name": "StatefulPartitionedCall/model/tf.math.add_36/Add/y", "op": "Const", "attr": {"dtype": {"type": "DT_FLOAT"}, "value": {"tensor": {"dtype": "DT_FLOAT", "tensorShape": {"dim": [{"size": "384"}]}}}}}, {"name": "StatefulPartitionedCall/model/zero_padding2d_11/Pad/paddings", "op": "Const", "attr": {"dtype": {"type": "DT_INT32"}, "value": {"tensor": {"dtype": "DT_INT32", "tensorShape": {"dim": [{"size": "4"}, {"size": "2"}]}}}}}, {"name": "StatefulPartitionedCall/model/depthwise_conv2d_10/depthwise/ReadVariableOp", "op": "Const", "attr": {"dtype": {"type": "DT_FLOAT"}, "value": {"tensor": {"dtype": "DT_FLOAT", "tensorShape": {"dim": [{"size": "3"}, {"size": "3"}, {"size": "384"}, {"size": "1"}]}}}}}, {"name": "StatefulPartitionedCall/model/tf.math.add_37/Add/y", "op": "Const", "attr": {"value": {"tensor": {"dtype": "DT_FLOAT", "tensorShape": {"dim": [{"size": "384"}]}}}, "dtype": {"type": "DT_FLOAT"}}}, {"name": "StatefulPartitionedCall/model/conv2d_21/Conv2D/ReadVariableOp", "op": "Const", "attr": {"dtype": {"type": "DT_FLOAT"}, "value": {"tensor": {"dtype": "DT_FLOAT", "tensorShape": {"dim": [{"size": "1"}, {"size": "1"}, {"size": "384"}, {"size": "96"}]}}}}}, {"name": "StatefulPartitionedCall/model/tf.math.add_38/Add/y", "op": "Const", "attr": {"dtype": {"type": "DT_FLOAT"}, "value": {"tensor": {"dtype": "DT_FLOAT", "tensorShape": {"dim": [{"size": "96"}]}}}}}, {"name": "StatefulPartitionedCall/model/conv2d_22/Conv2D/ReadVariableOp", "op": "Const", "attr": {"dtype": {"type": "DT_FLOAT"}, "value": {"tensor": {"dtype": "DT_FLOAT", "tensorShape": {"dim": [{"size": "1"}, {"size": "1"}, {"size": "96"}, {"size": "576"}]}}}}}, {"name": "StatefulPartitionedCall/model/tf.math.add_39/Add/y", "op": "Const", "attr": {"dtype": {"type": "DT_FLOAT"}, "value": {"tensor": {"dtype": "DT_FLOAT", "tensorShape": {"dim": [{"size": "576"}]}}}}}, {"name": "StatefulPartitionedCall/model/zero_padding2d_12/Pad/paddings", "op": "Const", "attr": {"value": {"tensor": {"dtype": "DT_INT32", "tensorShape": {"dim": [{"size": "4"}, {"size": "2"}]}}}, "dtype": {"type": "DT_INT32"}}}, {"name": "StatefulPartitionedCall/model/depthwise_conv2d_11/depthwise/ReadVariableOp", "op": "Const", "attr": {"value": {"tensor": {"dtype": "DT_FLOAT", "tensorShape": {"dim": [{"size": "3"}, {"size": "3"}, {"size": "576"}, {"size": "1"}]}}}, "dtype": {"type": "DT_FLOAT"}}}, {"name": "StatefulPartitionedCall/model/tf.math.add_40/Add/y", "op": "Const", "attr": {"dtype": {"type": "DT_FLOAT"}, "value": {"tensor": {"dtype": "DT_FLOAT", "tensorShape": {"dim": [{"size": "576"}]}}}}}, {"name": "StatefulPartitionedCall/model/conv2d_23/Conv2D/ReadVariableOp", "op": "Const", "attr": {"dtype": {"type": "DT_FLOAT"}, "value": {"tensor": {"dtype": "DT_FLOAT", "tensorShape": {"dim": [{"size": "1"}, {"size": "1"}, {"size": "576"}, {"size": "96"}]}}}}}, {"name": "StatefulPartitionedCall/model/tf.math.add_41/Add/y", "op": "Const", "attr": {"value": {"tensor": {"dtype": "DT_FLOAT", "tensorShape": {"dim": [{"size": "96"}]}}}, "dtype": {"type": "DT_FLOAT"}}}, {"name": "StatefulPartitionedCall/model/conv2d_24/Conv2D/ReadVariableOp", "op": "Const", "attr": {"dtype": {"type": "DT_FLOAT"}, "value": {"tensor": {"dtype": "DT_FLOAT", "tensorShape": {"dim": [{"size": "1"}, {"size": "1"}, {"size": "96"}, {"size": "576"}]}}}}}, {"name": "StatefulPartitionedCall/model/tf.math.add_43/Add/y", "op": "Const", "attr": {"value": {"tensor": {"dtype": "DT_FLOAT", "tensorShape": {"dim": [{"size": "576"}]}}}, "dtype": {"type": "DT_FLOAT"}}}, {"name": "StatefulPartitionedCall/model/zero_padding2d_13/Pad/paddings", "op": "Const", "attr": {"dtype": {"type": "DT_INT32"}, "value": {"tensor": {"dtype": "DT_INT32", "tensorShape": {"dim": [{"size": "4"}, {"size": "2"}]}}}}}, {"name": "StatefulPartitionedCall/model/depthwise_conv2d_12/depthwise/ReadVariableOp", "op": "Const", "attr": {"dtype": {"type": "DT_FLOAT"}, "value": {"tensor": {"dtype": "DT_FLOAT", "tensorShape": {"dim": [{"size": "3"}, {"size": "3"}, {"size": "576"}, {"size": "1"}]}}}}}, {"name": "StatefulPartitionedCall/model/tf.math.add_44/Add/y", "op": "Const", "attr": {"dtype": {"type": "DT_FLOAT"}, "value": {"tensor": {"dtype": "DT_FLOAT", "tensorShape": {"dim": [{"size": "576"}]}}}}}, {"name": "StatefulPartitionedCall/model/conv2d_25/Conv2D/ReadVariableOp", "op": "Const", "attr": {"dtype": {"type": "DT_FLOAT"}, "value": {"tensor": {"dtype": "DT_FLOAT", "tensorShape": {"dim": [{"size": "1"}, {"size": "1"}, {"size": "576"}, {"size": "96"}]}}}}}, {"name": "StatefulPartitionedCall/model/tf.math.add_45/Add/y", "op": "Const", "attr": {"dtype": {"type": "DT_FLOAT"}, "value": {"tensor": {"dtype": "DT_FLOAT", "tensorShape": {"dim": [{"size": "96"}]}}}}}, {"name": "StatefulPartitionedCall/model/conv2d_26/Conv2D/ReadVariableOp", "op": "Const", "attr": {"value": {"tensor": {"dtype": "DT_FLOAT", "tensorShape": {"dim": [{"size": "1"}, {"size": "1"}, {"size": "96"}, {"size": "576"}]}}}, "dtype": {"type": "DT_FLOAT"}}}, {"name": "StatefulPartitionedCall/model/tf.math.add_47/Add/y", "op": "Const", "attr": {"dtype": {"type": "DT_FLOAT"}, "value": {"tensor": {"dtype": "DT_FLOAT", "tensorShape": {"dim": [{"size": "576"}]}}}}}, {"name": "StatefulPartitionedCall/model/zero_padding2d_14/Pad/paddings", "op": "Const", "attr": {"value": {"tensor": {"dtype": "DT_INT32", "tensorShape": {"dim": [{"size": "4"}, {"size": "2"}]}}}, "dtype": {"type": "DT_INT32"}}}, {"name": "StatefulPartitionedCall/model/depthwise_conv2d_13/depthwise/ReadVariableOp", "op": "Const", "attr": {"dtype": {"type": "DT_FLOAT"}, "value": {"tensor": {"dtype": "DT_FLOAT", "tensorShape": {"dim": [{"size": "3"}, {"size": "3"}, {"size": "576"}, {"size": "1"}]}}}}}, {"name": "StatefulPartitionedCall/model/tf.math.add_48/Add/y", "op": "Const", "attr": {"dtype": {"type": "DT_FLOAT"}, "value": {"tensor": {"dtype": "DT_FLOAT", "tensorShape": {"dim": [{"size": "576"}]}}}}}, {"name": "StatefulPartitionedCall/model/conv2d_27/Conv2D/ReadVariableOp", "op": "Const", "attr": {"dtype": {"type": "DT_FLOAT"}, "value": {"tensor": {"dtype": "DT_FLOAT", "tensorShape": {"dim": [{"size": "1"}, {"size": "1"}, {"size": "576"}, {"size": "160"}]}}}}}, {"name": "StatefulPartitionedCall/model/tf.math.add_49/Add/y", "op": "Const", "attr": {"dtype": {"type": "DT_FLOAT"}, "value": {"tensor": {"dtype": "DT_FLOAT", "tensorShape": {"dim": [{"size": "160"}]}}}}}, {"name": "StatefulPartitionedCall/model/conv2d_28/Conv2D/ReadVariableOp", "op": "Const", "attr": {"value": {"tensor": {"dtype": "DT_FLOAT", "tensorShape": {"dim": [{"size": "1"}, {"size": "1"}, {"size": "160"}, {"size": "960"}]}}}, "dtype": {"type": "DT_FLOAT"}}}, {"name": "StatefulPartitionedCall/model/tf.math.add_50/Add/y", "op": "Const", "attr": {"dtype": {"type": "DT_FLOAT"}, "value": {"tensor": {"dtype": "DT_FLOAT", "tensorShape": {"dim": [{"size": "960"}]}}}}}, {"name": "StatefulPartitionedCall/model/zero_padding2d_15/Pad/paddings", "op": "Const", "attr": {"value": {"tensor": {"dtype": "DT_INT32", "tensorShape": {"dim": [{"size": "4"}, {"size": "2"}]}}}, "dtype": {"type": "DT_INT32"}}}, {"name": "StatefulPartitionedCall/model/depthwise_conv2d_14/depthwise/ReadVariableOp", "op": "Const", "attr": {"dtype": {"type": "DT_FLOAT"}, "value": {"tensor": {"dtype": "DT_FLOAT", "tensorShape": {"dim": [{"size": "3"}, {"size": "3"}, {"size": "960"}, {"size": "1"}]}}}}}, {"name": "StatefulPartitionedCall/model/tf.math.add_51/Add/y", "op": "Const", "attr": {"dtype": {"type": "DT_FLOAT"}, "value": {"tensor": {"dtype": "DT_FLOAT", "tensorShape": {"dim": [{"size": "960"}]}}}}}, {"name": "StatefulPartitionedCall/model/conv2d_29/Conv2D/ReadVariableOp", "op": "Const", "attr": {"value": {"tensor": {"dtype": "DT_FLOAT", "tensorShape": {"dim": [{"size": "1"}, {"size": "1"}, {"size": "960"}, {"size": "160"}]}}}, "dtype": {"type": "DT_FLOAT"}}}, {"name": "StatefulPartitionedCall/model/tf.math.add_52/Add/y", "op": "Const", "attr": {"value": {"tensor": {"dtype": "DT_FLOAT", "tensorShape": {"dim": [{"size": "160"}]}}}, "dtype": {"type": "DT_FLOAT"}}}, {"name": "StatefulPartitionedCall/model/conv2d_30/Conv2D/ReadVariableOp", "op": "Const", "attr": {"value": {"tensor": {"dtype": "DT_FLOAT", "tensorShape": {"dim": [{"size": "1"}, {"size": "1"}, {"size": "160"}, {"size": "960"}]}}}, "dtype": {"type": "DT_FLOAT"}}}, {"name": "StatefulPartitionedCall/model/tf.math.add_54/Add/y", "op": "Const", "attr": {"dtype": {"type": "DT_FLOAT"}, "value": {"tensor": {"dtype": "DT_FLOAT", "tensorShape": {"dim": [{"size": "960"}]}}}}}, {"name": "StatefulPartitionedCall/model/zero_padding2d_16/Pad/paddings", "op": "Const", "attr": {"dtype": {"type": "DT_INT32"}, "value": {"tensor": {"dtype": "DT_INT32", "tensorShape": {"dim": [{"size": "4"}, {"size": "2"}]}}}}}, {"name": "StatefulPartitionedCall/model/depthwise_conv2d_15/depthwise/ReadVariableOp", "op": "Const", "attr": {"dtype": {"type": "DT_FLOAT"}, "value": {"tensor": {"dtype": "DT_FLOAT", "tensorShape": {"dim": [{"size": "3"}, {"size": "3"}, {"size": "960"}, {"size": "1"}]}}}}}, {"name": "StatefulPartitionedCall/model/tf.math.add_55/Add/y", "op": "Const", "attr": {"dtype": {"type": "DT_FLOAT"}, "value": {"tensor": {"dtype": "DT_FLOAT", "tensorShape": {"dim": [{"size": "960"}]}}}}}, {"name": "StatefulPartitionedCall/model/conv2d_31/Conv2D/ReadVariableOp", "op": "Const", "attr": {"dtype": {"type": "DT_FLOAT"}, "value": {"tensor": {"dtype": "DT_FLOAT", "tensorShape": {"dim": [{"size": "1"}, {"size": "1"}, {"size": "960"}, {"size": "160"}]}}}}}, {"name": "StatefulPartitionedCall/model/tf.math.add_56/Add/y", "op": "Const", "attr": {"value": {"tensor": {"dtype": "DT_FLOAT", "tensorShape": {"dim": [{"size": "160"}]}}}, "dtype": {"type": "DT_FLOAT"}}}, {"name": "StatefulPartitionedCall/model/conv2d_32/Conv2D/ReadVariableOp", "op": "Const", "attr": {"value": {"tensor": {"dtype": "DT_FLOAT", "tensorShape": {"dim": [{"size": "1"}, {"size": "1"}, {"size": "160"}, {"size": "960"}]}}}, "dtype": {"type": "DT_FLOAT"}}}, {"name": "StatefulPartitionedCall/model/tf.math.add_58/Add/y", "op": "Const", "attr": {"dtype": {"type": "DT_FLOAT"}, "value": {"tensor": {"dtype": "DT_FLOAT", "tensorShape": {"dim": [{"size": "960"}]}}}}}, {"name": "StatefulPartitionedCall/model/zero_padding2d_17/Pad/paddings", "op": "Const", "attr": {"value": {"tensor": {"dtype": "DT_INT32", "tensorShape": {"dim": [{"size": "4"}, {"size": "2"}]}}}, "dtype": {"type": "DT_INT32"}}}, {"name": "StatefulPartitionedCall/model/depthwise_conv2d_16/depthwise/ReadVariableOp", "op": "Const", "attr": {"dtype": {"type": "DT_FLOAT"}, "value": {"tensor": {"dtype": "DT_FLOAT", "tensorShape": {"dim": [{"size": "3"}, {"size": "3"}, {"size": "960"}, {"size": "1"}]}}}}}, {"name": "StatefulPartitionedCall/model/tf.math.add_59/Add/y", "op": "Const", "attr": {"dtype": {"type": "DT_FLOAT"}, "value": {"tensor": {"dtype": "DT_FLOAT", "tensorShape": {"dim": [{"size": "960"}]}}}}}, {"name": "StatefulPartitionedCall/model/conv2d_33/Conv2D/ReadVariableOp", "op": "Const", "attr": {"dtype": {"type": "DT_FLOAT"}, "value": {"tensor": {"dtype": "DT_FLOAT", "tensorShape": {"dim": [{"size": "1"}, {"size": "1"}, {"size": "960"}, {"size": "320"}]}}}}}, {"name": "StatefulPartitionedCall/model/tf.math.add_60/Add/y", "op": "Const", "attr": {"dtype": {"type": "DT_FLOAT"}, "value": {"tensor": {"dtype": "DT_FLOAT", "tensorShape": {"dim": [{"size": "320"}]}}}}}, {"name": "StatefulPartitionedCall/model/conv2d_34/Conv2D/ReadVariableOp", "op": "Const", "attr": {"value": {"tensor": {"dtype": "DT_FLOAT", "tensorShape": {"dim": [{"size": "1"}, {"size": "1"}, {"size": "320"}, {"size": "2048"}]}}}, "dtype": {"type": "DT_FLOAT"}}}, {"name": "StatefulPartitionedCall/model/tf.math.add_61/Add/y", "op": "Const", "attr": {"dtype": {"type": "DT_FLOAT"}, "value": {"tensor": {"dtype": "DT_FLOAT", "tensorShape": {"dim": [{"size": "2048"}]}}}}}, {"name": "StatefulPartitionedCall/model/tf.concat/concat/axis", "op": "Const", "attr": {"value": {"tensor": {"dtype": "DT_INT32", "tensorShape": {}}}, "dtype": {"type": "DT_INT32"}}}, {"name": "StatefulPartitionedCall/model/conv2d_35/Conv2D/ReadVariableOp", "op": "Const", "attr": {"value": {"tensor": {"dtype": "DT_FLOAT", "tensorShape": {"dim": [{"size": "1"}, {"size": "1"}, {"size": "2144"}, {"size": "96"}]}}}, "dtype": {"type": "DT_FLOAT"}}}, {"name": "StatefulPartitionedCall/model/tf.math.add_62/Add/y", "op": "Const", "attr": {"value": {"tensor": {"dtype": "DT_FLOAT", "tensorShape": {"dim": [{"size": "96"}]}}}, "dtype": {"type": "DT_FLOAT"}}}, {"name": "StatefulPartitionedCall/model/zero_padding2d_18/Pad/paddings", "op": "Const", "attr": {"dtype": {"type": "DT_INT32"}, "value": {"tensor": {"dtype": "DT_INT32", "tensorShape": {"dim": [{"size": "4"}, {"size": "2"}]}}}}}, {"name": "StatefulPartitionedCall/model/conv2d_36/Conv2D/ReadVariableOp", "op": "Const", "attr": {"dtype": {"type": "DT_FLOAT"}, "value": {"tensor": {"dtype": "DT_FLOAT", "tensorShape": {"dim": [{"size": "3"}, {"size": "3"}, {"size": "96"}, {"size": "256"}]}}}}}, {"name": "StatefulPartitionedCall/model/tf.math.add_63/Add/y", "op": "Const", "attr": {"value": {"tensor": {"dtype": "DT_FLOAT", "tensorShape": {"dim": [{"size": "256"}]}}}, "dtype": {"type": "DT_FLOAT"}}}, {"name": "StatefulPartitionedCall/model/lambda/resize/size", "op": "Const", "attr": {"dtype": {"type": "DT_INT32"}, "value": {"tensor": {"dtype": "DT_INT32", "tensorShape": {"dim": [{"size": "2"}]}}}}}, {"name": "StatefulPartitionedCall/model/tf.concat_1/concat/axis", "op": "Const", "attr": {"value": {"tensor": {"dtype": "DT_INT32", "tensorShape": {}}}, "dtype": {"type": "DT_INT32"}}}, {"name": "StatefulPartitionedCall/model/conv2d_37/Conv2D/ReadVariableOp", "op": "Const", "attr": {"value": {"tensor": {"dtype": "DT_FLOAT", "tensorShape": {"dim": [{"size": "1"}, {"size": "1"}, {"size": "320"}, {"size": "64"}]}}}, "dtype": {"type": "DT_FLOAT"}}}, {"name": "StatefulPartitionedCall/model/tf.math.add_64/Add/y", "op": "Const", "attr": {"dtype": {"type": "DT_FLOAT"}, "value": {"tensor": {"dtype": "DT_FLOAT", "tensorShape": {"dim": [{"size": "64"}]}}}}}, {"name": "StatefulPartitionedCall/model/zero_padding2d_19/Pad/paddings", "op": "Const", "attr": {"dtype": {"type": "DT_INT32"}, "value": {"tensor": {"dtype": "DT_INT32", "tensorShape": {"dim": [{"size": "4"}, {"size": "2"}]}}}}}, {"name": "StatefulPartitionedCall/model/conv2d_38/Conv2D/ReadVariableOp", "op": "Const", "attr": {"value": {"tensor": {"dtype": "DT_FLOAT", "tensorShape": {"dim": [{"size": "3"}, {"size": "3"}, {"size": "64"}, {"size": "256"}]}}}, "dtype": {"type": "DT_FLOAT"}}}, {"name": "StatefulPartitionedCall/model/tf.math.add_65/Add/y", "op": "Const", "attr": {"value": {"tensor": {"dtype": "DT_FLOAT", "tensorShape": {"dim": [{"size": "256"}]}}}, "dtype": {"type": "DT_FLOAT"}}}, {"name": "StatefulPartitionedCall/model/lambda_1/resize/size", "op": "Const", "attr": {"dtype": {"type": "DT_INT32"}, "value": {"tensor": {"dtype": "DT_INT32", "tensorShape": {"dim": [{"size": "2"}]}}}}}, {"name": "StatefulPartitionedCall/model/tf.concat_2/concat/axis", "op": "Const", "attr": {"value": {"tensor": {"dtype": "DT_INT32", "tensorShape": {}}}, "dtype": {"type": "DT_INT32"}}}, {"name": "StatefulPartitionedCall/model/conv2d_39/Conv2D/ReadVariableOp", "op": "Const", "attr": {"dtype": {"type": "DT_FLOAT"}, "value": {"tensor": {"dtype": "DT_FLOAT", "tensorShape": {"dim": [{"size": "1"}, {"size": "1"}, {"size": "304"}, {"size": "48"}]}}}}}, {"name": "StatefulPartitionedCall/model/tf.math.add_66/Add/y", "op": "Const", "attr": {"value": {"tensor": {"dtype": "DT_FLOAT", "tensorShape": {"dim": [{"size": "48"}]}}}, "dtype": {"type": "DT_FLOAT"}}}, {"name": "StatefulPartitionedCall/model/zero_padding2d_20/Pad/paddings", "op": "Const", "attr": {"value": {"tensor": {"dtype": "DT_INT32", "tensorShape": {"dim": [{"size": "4"}, {"size": "2"}]}}}, "dtype": {"type": "DT_INT32"}}}, {"name": "StatefulPartitionedCall/model/conv2d_40/Conv2D/ReadVariableOp", "op": "Const", "attr": {"dtype": {"type": "DT_FLOAT"}, "value": {"tensor": {"dtype": "DT_FLOAT", "tensorShape": {"dim": [{"size": "3"}, {"size": "3"}, {"size": "48"}, {"size": "256"}]}}}}}, {"name": "StatefulPartitionedCall/model/tf.math.add_67/Add/y", "op": "Const", "attr": {"dtype": {"type": "DT_FLOAT"}, "value": {"tensor": {"dtype": "DT_FLOAT", "tensorShape": {"dim": [{"size": "256"}]}}}}}, {"name": "StatefulPartitionedCall/model/lambda_2/resize/size", "op": "Const", "attr": {"dtype": {"type": "DT_INT32"}, "value": {"tensor": {"dtype": "DT_INT32", "tensorShape": {"dim": [{"size": "2"}]}}}}}, {"name": "StatefulPartitionedCall/model/conv2d_41/Conv2D/ReadVariableOp", "op": "Const", "attr": {"value": {"tensor": {"dtype": "DT_FLOAT", "tensorShape": {"dim": [{"size": "1"}, {"size": "1"}, {"size": "256"}, {"size": "672"}]}}}, "dtype": {"type": "DT_FLOAT"}}}, {"name": "StatefulPartitionedCall/model/tf.math.add_68/Add/y", "op": "Const", "attr": {"value": {"tensor": {"dtype": "DT_FLOAT", "tensorShape": {"dim": [{"size": "672"}]}}}, "dtype": {"type": "DT_FLOAT"}}}, {"name": "input", "op": "Placeholder", "attr": {"dtype": {"type": "DT_FLOAT"}, "shape": {"shape": {"dim": [{"size": "1"}, {"size": "256"}, {"size": "256"}, {"size": "3"}]}}}}, {"name": "StatefulPartitionedCall/model/zero_padding2d/Pad", "op": "Pad", "input": ["input", "StatefulPartitionedCall/model/zero_padding2d/Pad/paddings"], "attr": {"Tpaddings": {"type": "DT_INT32"}, "T": {"type": "DT_FLOAT"}}}, {"name": "StatefulPartitionedCall/model/conv2d/Conv2D", "op": "Conv2D", "input": ["StatefulPartitionedCall/model/zero_padding2d/Pad", "StatefulPartitionedCall/model/conv2d/Conv2D/ReadVariableOp"], "device": "/device:CPU:0", "attr": {"data_format": {"s": "TkhXQw=="}, "strides": {"list": {"i": ["1", "2", "2", "1"]}}, "T": {"type": "DT_FLOAT"}, "explicit_paddings": {"list": {}}, "dilations": {"list": {"i": ["1", "1", "1", "1"]}}, "padding": {"s": "VkFMSUQ="}, "use_cudnn_on_gpu": {"b": true}}}, {"name": "StatefulPartitionedCall/model/tf.math.add/Add", "op": "AddV2", "input": ["StatefulPartitionedCall/model/conv2d/Conv2D", "StatefulPartitionedCall/model/tf.math.add/Add/y"], "attr": {"T": {"type": "DT_FLOAT"}}}, {"name": "StatefulPartitionedCall/model/p_re_lu_1/Relu", "op": "Prelu", "input": ["StatefulPartitionedCall/model/tf.math.add/Add", "StatefulPartitionedCall/model/p_re_lu_1/Neg"]}, {"name": "StatefulPartitionedCall/model/zero_padding2d_1/Pad", "op": "Pad", "input": ["StatefulPartitionedCall/model/p_re_lu_1/Relu", "StatefulPartitionedCall/model/zero_padding2d_1/Pad/paddings"], "attr": {"Tpaddings": {"type": "DT_INT32"}, "T": {"type": "DT_FLOAT"}}}, {"name": "StatefulPartitionedCall/model/depthwise_conv2d/depthwise", "op": "DepthwiseConv2dNative", "input": ["StatefulPartitionedCall/model/zero_padding2d_1/Pad", "StatefulPartitionedCall/model/depthwise_conv2d/depthwise/ReadVariableOp"], "attr": {"dilations": {"list": {"i": ["1", "1", "1", "1"]}}, "padding": {"s": "VkFMSUQ="}, "T": {"type": "DT_FLOAT"}, "data_format": {"s": "TkhXQw=="}, "strides": {"list": {"i": ["1", "2", "2", "1"]}}, "explicit_paddings": {"list": {}}}}, {"name": "StatefulPartitionedCall/model/tf.math.add_1/Add", "op": "AddV2", "input": ["StatefulPartitionedCall/model/depthwise_conv2d/depthwise", "StatefulPartitionedCall/model/tf.math.add_1/Add/y"], "attr": {"T": {"type": "DT_FLOAT"}}}, {"name": "StatefulPartitionedCall/model/p_re_lu_3/Relu", "op": "Prelu", "input": ["StatefulPartitionedCall/model/tf.math.add_1/Add", "StatefulPartitionedCall/model/p_re_lu_3/Neg"]}, {"name": "StatefulPartitionedCall/model/conv2d_1/Conv2D", "op": "Conv2D", "input": ["StatefulPartitionedCall/model/p_re_lu_3/Relu", "StatefulPartitionedCall/model/conv2d_1/Conv2D/ReadVariableOp"], "device": "/device:CPU:0", "attr": {"dilations": {"list": {"i": ["1", "1", "1", "1"]}}, "padding": {"s": "VkFMSUQ="}, "strides": {"list": {"i": ["1", "1", "1", "1"]}}, "use_cudnn_on_gpu": {"b": true}, "data_format": {"s": "TkhXQw=="}, "explicit_paddings": {"list": {}}, "T": {"type": "DT_FLOAT"}}}, {"name": "StatefulPartitionedCall/model/tf.math.add_2/Add", "op": "AddV2", "input": ["StatefulPartitionedCall/model/conv2d_1/Conv2D", "StatefulPartitionedCall/model/tf.math.add_2/Add/y"], "attr": {"T": {"type": "DT_FLOAT"}}}, {"name": "StatefulPartitionedCall/model/conv2d_2/Conv2D", "op": "Conv2D", "input": ["StatefulPartitionedCall/model/tf.math.add_2/Add", "StatefulPartitionedCall/model/conv2d_2/Conv2D/ReadVariableOp"], "device": "/device:CPU:0", "attr": {"T": {"type": "DT_FLOAT"}, "dilations": {"list": {"i": ["1", "1", "1", "1"]}}, "strides": {"list": {"i": ["1", "1", "1", "1"]}}, "use_cudnn_on_gpu": {"b": true}, "data_format": {"s": "TkhXQw=="}, "explicit_paddings": {"list": {}}, "padding": {"s": "VkFMSUQ="}}}, {"name": "StatefulPartitionedCall/model/tf.math.add_3/Add", "op": "AddV2", "input": ["StatefulPartitionedCall/model/conv2d_2/Conv2D", "StatefulPartitionedCall/model/tf.math.add_3/Add/y"], "attr": {"T": {"type": "DT_FLOAT"}}}, {"name": "StatefulPartitionedCall/model/p_re_lu_5/Relu", "op": "Prelu", "input": ["StatefulPartitionedCall/model/tf.math.add_3/Add", "StatefulPartitionedCall/model/p_re_lu_5/Neg"]}, {"name": "StatefulPartitionedCall/model/zero_padding2d_2/Pad", "op": "Pad", "input": ["StatefulPartitionedCall/model/p_re_lu_5/Relu", "StatefulPartitionedCall/model/zero_padding2d_2/Pad/paddings"], "attr": {"T": {"type": "DT_FLOAT"}, "Tpaddings": {"type": "DT_INT32"}}}, {"name": "StatefulPartitionedCall/model/depthwise_conv2d_1/depthwise", "op": "DepthwiseConv2dNative", "input": ["StatefulPartitionedCall/model/zero_padding2d_2/Pad", "StatefulPartitionedCall/model/depthwise_conv2d_1/depthwise/ReadVariableOp"], "attr": {"dilations": {"list": {"i": ["1", "1", "1", "1"]}}, "T": {"type": "DT_FLOAT"}, "explicit_paddings": {"list": {}}, "data_format": {"s": "TkhXQw=="}, "padding": {"s": "VkFMSUQ="}, "strides": {"list": {"i": ["1", "2", "2", "1"]}}}}, {"name": "StatefulPartitionedCall/model/tf.math.add_4/Add", "op": "AddV2", "input": ["StatefulPartitionedCall/model/depthwise_conv2d_1/depthwise", "StatefulPartitionedCall/model/tf.math.add_4/Add/y"], "attr": {"T": {"type": "DT_FLOAT"}}}, {"name": "StatefulPartitionedCall/model/p_re_lu_7/Relu", "op": "Prelu", "input": ["StatefulPartitionedCall/model/tf.math.add_4/Add", "StatefulPartitionedCall/model/p_re_lu_7/Neg"]}, {"name": "StatefulPartitionedCall/model/conv2d_3/Conv2D", "op": "Conv2D", "input": ["StatefulPartitionedCall/model/p_re_lu_7/Relu", "StatefulPartitionedCall/model/conv2d_3/Conv2D/ReadVariableOp"], "device": "/device:CPU:0", "attr": {"strides": {"list": {"i": ["1", "1", "1", "1"]}}, "explicit_paddings": {"list": {}}, "T": {"type": "DT_FLOAT"}, "data_format": {"s": "TkhXQw=="}, "use_cudnn_on_gpu": {"b": true}, "dilations": {"list": {"i": ["1", "1", "1", "1"]}}, "padding": {"s": "VkFMSUQ="}}}, {"name": "StatefulPartitionedCall/model/tf.math.add_5/Add", "op": "AddV2", "input": ["StatefulPartitionedCall/model/conv2d_3/Conv2D", "StatefulPartitionedCall/model/tf.math.add_5/Add/y"], "attr": {"T": {"type": "DT_FLOAT"}}}, {"name": "StatefulPartitionedCall/model/conv2d_4/Conv2D", "op": "Conv2D", "input": ["StatefulPartitionedCall/model/tf.math.add_5/Add", "StatefulPartitionedCall/model/conv2d_4/Conv2D/ReadVariableOp"], "device": "/device:CPU:0", "attr": {"use_cudnn_on_gpu": {"b": true}, "data_format": {"s": "TkhXQw=="}, "padding": {"s": "VkFMSUQ="}, "T": {"type": "DT_FLOAT"}, "dilations": {"list": {"i": ["1", "1", "1", "1"]}}, "strides": {"list": {"i": ["1", "1", "1", "1"]}}, "explicit_paddings": {"list": {}}}}, {"name": "StatefulPartitionedCall/model/tf.math.add_6/Add", "op": "AddV2", "input": ["StatefulPartitionedCall/model/conv2d_4/Conv2D", "StatefulPartitionedCall/model/tf.math.add_6/Add/y"], "attr": {"T": {"type": "DT_FLOAT"}}}, {"name": "StatefulPartitionedCall/model/p_re_lu_9/Relu", "op": "Prelu", "input": ["StatefulPartitionedCall/model/tf.math.add_6/Add", "StatefulPartitionedCall/model/p_re_lu_9/Neg"]}, {"name": "StatefulPartitionedCall/model/zero_padding2d_3/Pad", "op": "Pad", "input": ["StatefulPartitionedCall/model/p_re_lu_9/Relu", "StatefulPartitionedCall/model/zero_padding2d_3/Pad/paddings"], "attr": {"Tpaddings": {"type": "DT_INT32"}, "T": {"type": "DT_FLOAT"}}}, {"name": "StatefulPartitionedCall/model/depthwise_conv2d_2/depthwise", "op": "DepthwiseConv2dNative", "input": ["StatefulPartitionedCall/model/zero_padding2d_3/Pad", "StatefulPartitionedCall/model/depthwise_conv2d_2/depthwise/ReadVariableOp"], "attr": {"dilations": {"list": {"i": ["1", "1", "1", "1"]}}, "explicit_paddings": {"list": {}}, "strides": {"list": {"i": ["1", "1", "1", "1"]}}, "T": {"type": "DT_FLOAT"}, "data_format": {"s": "TkhXQw=="}, "padding": {"s": "VkFMSUQ="}}}, {"name": "StatefulPartitionedCall/model/tf.math.add_7/Add", "op": "AddV2", "input": ["StatefulPartitionedCall/model/depthwise_conv2d_2/depthwise", "StatefulPartitionedCall/model/tf.math.add_7/Add/y"], "attr": {"T": {"type": "DT_FLOAT"}}}, {"name": "StatefulPartitionedCall/model/p_re_lu_11/Relu", "op": "Prelu", "input": ["StatefulPartitionedCall/model/tf.math.add_7/Add", "StatefulPartitionedCall/model/p_re_lu_11/Neg"]}, {"name": "StatefulPartitionedCall/model/conv2d_5/Conv2D", "op": "Conv2D", "input": ["StatefulPartitionedCall/model/p_re_lu_11/Relu", "StatefulPartitionedCall/model/conv2d_5/Conv2D/ReadVariableOp"], "device": "/device:CPU:0", "attr": {"data_format": {"s": "TkhXQw=="}, "strides": {"list": {"i": ["1", "1", "1", "1"]}}, "dilations": {"list": {"i": ["1", "1", "1", "1"]}}, "explicit_paddings": {"list": {}}, "T": {"type": "DT_FLOAT"}, "use_cudnn_on_gpu": {"b": true}, "padding": {"s": "VkFMSUQ="}}}, {"name": "StatefulPartitionedCall/model/tf.math.add_8/Add", "op": "AddV2", "input": ["StatefulPartitionedCall/model/conv2d_5/Conv2D", "StatefulPartitionedCall/model/tf.math.add_8/Add/y"], "attr": {"T": {"type": "DT_FLOAT"}}}, {"name": "StatefulPartitionedCall/model/tf.math.add_9/Add", "op": "AddV2", "input": ["StatefulPartitionedCall/model/tf.math.add_5/Add", "StatefulPartitionedCall/model/tf.math.add_8/Add"], "attr": {"T": {"type": "DT_FLOAT"}}}, {"name": "StatefulPartitionedCall/model/conv2d_6/Conv2D", "op": "Conv2D", "input": ["StatefulPartitionedCall/model/tf.math.add_9/Add", "StatefulPartitionedCall/model/conv2d_6/Conv2D/ReadVariableOp"], "device": "/device:CPU:0", "attr": {"padding": {"s": "VkFMSUQ="}, "data_format": {"s": "TkhXQw=="}, "T": {"type": "DT_FLOAT"}, "strides": {"list": {"i": ["1", "1", "1", "1"]}}, "use_cudnn_on_gpu": {"b": true}, "dilations": {"list": {"i": ["1", "1", "1", "1"]}}, "explicit_paddings": {"list": {}}}}, {"name": "StatefulPartitionedCall/model/tf.math.add_10/Add", "op": "AddV2", "input": ["StatefulPartitionedCall/model/conv2d_6/Conv2D", "StatefulPartitionedCall/model/tf.math.add_10/Add/y"], "attr": {"T": {"type": "DT_FLOAT"}}}, {"name": "StatefulPartitionedCall/model/p_re_lu_13/Relu", "op": "Prelu", "input": ["StatefulPartitionedCall/model/tf.math.add_10/Add", "StatefulPartitionedCall/model/p_re_lu_13/Neg"]}, {"name": "StatefulPartitionedCall/model/zero_padding2d_4/Pad", "op": "Pad", "input": ["StatefulPartitionedCall/model/p_re_lu_13/Relu", "StatefulPartitionedCall/model/zero_padding2d_4/Pad/paddings"], "attr": {"Tpaddings": {"type": "DT_INT32"}, "T": {"type": "DT_FLOAT"}}}, {"name": "StatefulPartitionedCall/model/depthwise_conv2d_3/depthwise", "op": "DepthwiseConv2dNative", "input": ["StatefulPartitionedCall/model/zero_padding2d_4/Pad", "StatefulPartitionedCall/model/depthwise_conv2d_3/depthwise/ReadVariableOp"], "attr": {"explicit_paddings": {"list": {}}, "T": {"type": "DT_FLOAT"}, "data_format": {"s": "TkhXQw=="}, "dilations": {"list": {"i": ["1", "1", "1", "1"]}}, "strides": {"list": {"i": ["1", "2", "2", "1"]}}, "padding": {"s": "VkFMSUQ="}}}, {"name": "StatefulPartitionedCall/model/tf.math.add_11/Add", "op": "AddV2", "input": ["StatefulPartitionedCall/model/depthwise_conv2d_3/depthwise", "StatefulPartitionedCall/model/tf.math.add_11/Add/y"], "attr": {"T": {"type": "DT_FLOAT"}}}, {"name": "StatefulPartitionedCall/model/p_re_lu_15/Relu", "op": "Prelu", "input": ["StatefulPartitionedCall/model/tf.math.add_11/Add", "StatefulPartitionedCall/model/p_re_lu_15/Neg"]}, {"name": "StatefulPartitionedCall/model/conv2d_7/Conv2D", "op": "Conv2D", "input": ["StatefulPartitionedCall/model/p_re_lu_15/Relu", "StatefulPartitionedCall/model/conv2d_7/Conv2D/ReadVariableOp"], "device": "/device:CPU:0", "attr": {"dilations": {"list": {"i": ["1", "1", "1", "1"]}}, "padding": {"s": "VkFMSUQ="}, "use_cudnn_on_gpu": {"b": true}, "data_format": {"s": "TkhXQw=="}, "strides": {"list": {"i": ["1", "1", "1", "1"]}}, "explicit_paddings": {"list": {}}, "T": {"type": "DT_FLOAT"}}}, {"name": "StatefulPartitionedCall/model/tf.math.add_12/Add", "op": "AddV2", "input": ["StatefulPartitionedCall/model/conv2d_7/Conv2D", "StatefulPartitionedCall/model/tf.math.add_12/Add/y"], "attr": {"T": {"type": "DT_FLOAT"}}}, {"name": "StatefulPartitionedCall/model/conv2d_8/Conv2D", "op": "Conv2D", "input": ["StatefulPartitionedCall/model/tf.math.add_12/Add", "StatefulPartitionedCall/model/conv2d_8/Conv2D/ReadVariableOp"], "device": "/device:CPU:0", "attr": {"use_cudnn_on_gpu": {"b": true}, "strides": {"list": {"i": ["1", "1", "1", "1"]}}, "T": {"type": "DT_FLOAT"}, "data_format": {"s": "TkhXQw=="}, "padding": {"s": "VkFMSUQ="}, "dilations": {"list": {"i": ["1", "1", "1", "1"]}}, "explicit_paddings": {"list": {}}}}, {"name": "StatefulPartitionedCall/model/tf.math.add_13/Add", "op": "AddV2", "input": ["StatefulPartitionedCall/model/conv2d_8/Conv2D", "StatefulPartitionedCall/model/tf.math.add_13/Add/y"], "attr": {"T": {"type": "DT_FLOAT"}}}, {"name": "StatefulPartitionedCall/model/p_re_lu_17/Relu", "op": "Prelu", "input": ["StatefulPartitionedCall/model/tf.math.add_13/Add", "StatefulPartitionedCall/model/p_re_lu_17/Neg"]}, {"name": "StatefulPartitionedCall/model/zero_padding2d_5/Pad", "op": "Pad", "input": ["StatefulPartitionedCall/model/p_re_lu_17/Relu", "StatefulPartitionedCall/model/zero_padding2d_5/Pad/paddings"], "attr": {"T": {"type": "DT_FLOAT"}, "Tpaddings": {"type": "DT_INT32"}}}, {"name": "StatefulPartitionedCall/model/depthwise_conv2d_4/depthwise", "op": "DepthwiseConv2dNative", "input": ["StatefulPartitionedCall/model/zero_padding2d_5/Pad", "StatefulPartitionedCall/model/depthwise_conv2d_4/depthwise/ReadVariableOp"], "attr": {"dilations": {"list": {"i": ["1", "1", "1", "1"]}}, "explicit_paddings": {"list": {}}, "strides": {"list": {"i": ["1", "1", "1", "1"]}}, "padding": {"s": "VkFMSUQ="}, "data_format": {"s": "TkhXQw=="}, "T": {"type": "DT_FLOAT"}}}, {"name": "StatefulPartitionedCall/model/tf.math.add_14/Add", "op": "AddV2", "input": ["StatefulPartitionedCall/model/depthwise_conv2d_4/depthwise", "StatefulPartitionedCall/model/tf.math.add_14/Add/y"], "attr": {"T": {"type": "DT_FLOAT"}}}, {"name": "StatefulPartitionedCall/model/p_re_lu_19/Relu", "op": "Prelu", "input": ["StatefulPartitionedCall/model/tf.math.add_14/Add", "StatefulPartitionedCall/model/p_re_lu_19/Neg"]}, {"name": "StatefulPartitionedCall/model/conv2d_9/Conv2D", "op": "Conv2D", "input": ["StatefulPartitionedCall/model/p_re_lu_19/Relu", "StatefulPartitionedCall/model/conv2d_9/Conv2D/ReadVariableOp"], "device": "/device:CPU:0", "attr": {"data_format": {"s": "TkhXQw=="}, "strides": {"list": {"i": ["1", "1", "1", "1"]}}, "padding": {"s": "VkFMSUQ="}, "T": {"type": "DT_FLOAT"}, "dilations": {"list": {"i": ["1", "1", "1", "1"]}}, "use_cudnn_on_gpu": {"b": true}, "explicit_paddings": {"list": {}}}}, {"name": "StatefulPartitionedCall/model/tf.math.add_15/Add", "op": "AddV2", "input": ["StatefulPartitionedCall/model/conv2d_9/Conv2D", "StatefulPartitionedCall/model/tf.math.add_15/Add/y"], "attr": {"T": {"type": "DT_FLOAT"}}}, {"name": "StatefulPartitionedCall/model/tf.math.add_16/Add", "op": "AddV2", "input": ["StatefulPartitionedCall/model/tf.math.add_12/Add", "StatefulPartitionedCall/model/tf.math.add_15/Add"], "attr": {"T": {"type": "DT_FLOAT"}}}, {"name": "StatefulPartitionedCall/model/conv2d_10/Conv2D", "op": "Conv2D", "input": ["StatefulPartitionedCall/model/tf.math.add_16/Add", "StatefulPartitionedCall/model/conv2d_10/Conv2D/ReadVariableOp"], "device": "/device:CPU:0", "attr": {"padding": {"s": "VkFMSUQ="}, "strides": {"list": {"i": ["1", "1", "1", "1"]}}, "dilations": {"list": {"i": ["1", "1", "1", "1"]}}, "explicit_paddings": {"list": {}}, "data_format": {"s": "TkhXQw=="}, "use_cudnn_on_gpu": {"b": true}, "T": {"type": "DT_FLOAT"}}}, {"name": "StatefulPartitionedCall/model/tf.math.add_17/Add", "op": "AddV2", "input": ["StatefulPartitionedCall/model/conv2d_10/Conv2D", "StatefulPartitionedCall/model/tf.math.add_17/Add/y"], "attr": {"T": {"type": "DT_FLOAT"}}}, {"name": "StatefulPartitionedCall/model/p_re_lu_21/Relu", "op": "Prelu", "input": ["StatefulPartitionedCall/model/tf.math.add_17/Add", "StatefulPartitionedCall/model/p_re_lu_21/Neg"]}, {"name": "StatefulPartitionedCall/model/zero_padding2d_6/Pad", "op": "Pad", "input": ["StatefulPartitionedCall/model/p_re_lu_21/Relu", "StatefulPartitionedCall/model/zero_padding2d_6/Pad/paddings"], "attr": {"T": {"type": "DT_FLOAT"}, "Tpaddings": {"type": "DT_INT32"}}}, {"name": "StatefulPartitionedCall/model/depthwise_conv2d_5/depthwise", "op": "DepthwiseConv2dNative", "input": ["StatefulPartitionedCall/model/zero_padding2d_6/Pad", "StatefulPartitionedCall/model/depthwise_conv2d_5/depthwise/ReadVariableOp"], "attr": {"dilations": {"list": {"i": ["1", "1", "1", "1"]}}, "data_format": {"s": "TkhXQw=="}, "padding": {"s": "VkFMSUQ="}, "strides": {"list": {"i": ["1", "1", "1", "1"]}}, "explicit_paddings": {"list": {}}, "T": {"type": "DT_FLOAT"}}}, {"name": "StatefulPartitionedCall/model/tf.math.add_18/Add", "op": "AddV2", "input": ["StatefulPartitionedCall/model/depthwise_conv2d_5/depthwise", "StatefulPartitionedCall/model/tf.math.add_18/Add/y"], "attr": {"T": {"type": "DT_FLOAT"}}}, {"name": "StatefulPartitionedCall/model/p_re_lu_23/Relu", "op": "Prelu", "input": ["StatefulPartitionedCall/model/tf.math.add_18/Add", "StatefulPartitionedCall/model/p_re_lu_23/Neg"]}, {"name": "StatefulPartitionedCall/model/conv2d_11/Conv2D", "op": "Conv2D", "input": ["StatefulPartitionedCall/model/p_re_lu_23/Relu", "StatefulPartitionedCall/model/conv2d_11/Conv2D/ReadVariableOp"], "device": "/device:CPU:0", "attr": {"padding": {"s": "VkFMSUQ="}, "T": {"type": "DT_FLOAT"}, "explicit_paddings": {"list": {}}, "use_cudnn_on_gpu": {"b": true}, "data_format": {"s": "TkhXQw=="}, "dilations": {"list": {"i": ["1", "1", "1", "1"]}}, "strides": {"list": {"i": ["1", "1", "1", "1"]}}}}, {"name": "StatefulPartitionedCall/model/tf.math.add_19/Add", "op": "AddV2", "input": ["StatefulPartitionedCall/model/conv2d_11/Conv2D", "StatefulPartitionedCall/model/tf.math.add_19/Add/y"], "attr": {"T": {"type": "DT_FLOAT"}}}, {"name": "StatefulPartitionedCall/model/tf.math.add_20/Add", "op": "AddV2", "input": ["StatefulPartitionedCall/model/tf.math.add_16/Add", "StatefulPartitionedCall/model/tf.math.add_19/Add"], "attr": {"T": {"type": "DT_FLOAT"}}}, {"name": "StatefulPartitionedCall/model/conv2d_12/Conv2D", "op": "Conv2D", "input": ["StatefulPartitionedCall/model/tf.math.add_20/Add", "StatefulPartitionedCall/model/conv2d_12/Conv2D/ReadVariableOp"], "device": "/device:CPU:0", "attr": {"explicit_paddings": {"list": {}}, "dilations": {"list": {"i": ["1", "1", "1", "1"]}}, "T": {"type": "DT_FLOAT"}, "data_format": {"s": "TkhXQw=="}, "use_cudnn_on_gpu": {"b": true}, "strides": {"list": {"i": ["1", "1", "1", "1"]}}, "padding": {"s": "VkFMSUQ="}}}, {"name": "StatefulPartitionedCall/model/tf.math.add_21/Add", "op": "AddV2", "input": ["StatefulPartitionedCall/model/conv2d_12/Conv2D", "StatefulPartitionedCall/model/tf.math.add_21/Add/y"], "attr": {"T": {"type": "DT_FLOAT"}}}, {"name": "StatefulPartitionedCall/model/p_re_lu_25/Relu", "op": "Prelu", "input": ["StatefulPartitionedCall/model/tf.math.add_21/Add", "StatefulPartitionedCall/model/p_re_lu_25/Neg"]}, {"name": "StatefulPartitionedCall/model/zero_padding2d_7/Pad", "op": "Pad", "input": ["StatefulPartitionedCall/model/p_re_lu_25/Relu", "StatefulPartitionedCall/model/zero_padding2d_7/Pad/paddings"], "attr": {"T": {"type": "DT_FLOAT"}, "Tpaddings": {"type": "DT_INT32"}}}, {"name": "StatefulPartitionedCall/model/depthwise_conv2d_6/depthwise", "op": "DepthwiseConv2dNative", "input": ["StatefulPartitionedCall/model/zero_padding2d_7/Pad", "StatefulPartitionedCall/model/depthwise_conv2d_6/depthwise/ReadVariableOp"], "attr": {"strides": {"list": {"i": ["1", "2", "2", "1"]}}, "dilations": {"list": {"i": ["1", "1", "1", "1"]}}, "T": {"type": "DT_FLOAT"}, "padding": {"s": "VkFMSUQ="}, "data_format": {"s": "TkhXQw=="}, "explicit_paddings": {"list": {}}}}, {"name": "StatefulPartitionedCall/model/tf.math.add_22/Add", "op": "AddV2", "input": ["StatefulPartitionedCall/model/depthwise_conv2d_6/depthwise", "StatefulPartitionedCall/model/tf.math.add_22/Add/y"], "attr": {"T": {"type": "DT_FLOAT"}}}, {"name": "StatefulPartitionedCall/model/p_re_lu_27/Relu", "op": "Prelu", "input": ["StatefulPartitionedCall/model/tf.math.add_22/Add", "StatefulPartitionedCall/model/p_re_lu_27/Neg"]}, {"name": "StatefulPartitionedCall/model/conv2d_13/Conv2D", "op": "Conv2D", "input": ["StatefulPartitionedCall/model/p_re_lu_27/Relu", "StatefulPartitionedCall/model/conv2d_13/Conv2D/ReadVariableOp"], "device": "/device:CPU:0", "attr": {"strides": {"list": {"i": ["1", "1", "1", "1"]}}, "explicit_paddings": {"list": {}}, "use_cudnn_on_gpu": {"b": true}, "data_format": {"s": "TkhXQw=="}, "dilations": {"list": {"i": ["1", "1", "1", "1"]}}, "T": {"type": "DT_FLOAT"}, "padding": {"s": "VkFMSUQ="}}}, {"name": "StatefulPartitionedCall/model/tf.math.add_23/Add", "op": "AddV2", "input": ["StatefulPartitionedCall/model/conv2d_13/Conv2D", "StatefulPartitionedCall/model/tf.math.add_23/Add/y"], "attr": {"T": {"type": "DT_FLOAT"}}}, {"name": "StatefulPartitionedCall/model/conv2d_14/Conv2D", "op": "Conv2D", "input": ["StatefulPartitionedCall/model/tf.math.add_23/Add", "StatefulPartitionedCall/model/conv2d_14/Conv2D/ReadVariableOp"], "device": "/device:CPU:0", "attr": {"padding": {"s": "VkFMSUQ="}, "dilations": {"list": {"i": ["1", "1", "1", "1"]}}, "use_cudnn_on_gpu": {"b": true}, "T": {"type": "DT_FLOAT"}, "data_format": {"s": "TkhXQw=="}, "explicit_paddings": {"list": {}}, "strides": {"list": {"i": ["1", "1", "1", "1"]}}}}, {"name": "StatefulPartitionedCall/model/tf.math.add_24/Add", "op": "AddV2", "input": ["StatefulPartitionedCall/model/conv2d_14/Conv2D", "StatefulPartitionedCall/model/tf.math.add_24/Add/y"], "attr": {"T": {"type": "DT_FLOAT"}}}, {"name": "StatefulPartitionedCall/model/p_re_lu_29/Relu", "op": "Prelu", "input": ["StatefulPartitionedCall/model/tf.math.add_24/Add", "StatefulPartitionedCall/model/p_re_lu_29/Neg"]}, {"name": "StatefulPartitionedCall/model/zero_padding2d_8/Pad", "op": "Pad", "input": ["StatefulPartitionedCall/model/p_re_lu_29/Relu", "StatefulPartitionedCall/model/zero_padding2d_8/Pad/paddings"], "attr": {"Tpaddings": {"type": "DT_INT32"}, "T": {"type": "DT_FLOAT"}}}, {"name": "StatefulPartitionedCall/model/depthwise_conv2d_7/depthwise", "op": "DepthwiseConv2dNative", "input": ["StatefulPartitionedCall/model/zero_padding2d_8/Pad", "StatefulPartitionedCall/model/depthwise_conv2d_7/depthwise/ReadVariableOp"], "attr": {"explicit_paddings": {"list": {}}, "T": {"type": "DT_FLOAT"}, "dilations": {"list": {"i": ["1", "1", "1", "1"]}}, "padding": {"s": "VkFMSUQ="}, "strides": {"list": {"i": ["1", "1", "1", "1"]}}, "data_format": {"s": "TkhXQw=="}}}, {"name": "StatefulPartitionedCall/model/tf.math.add_25/Add", "op": "AddV2", "input": ["StatefulPartitionedCall/model/depthwise_conv2d_7/depthwise", "StatefulPartitionedCall/model/tf.math.add_25/Add/y"], "attr": {"T": {"type": "DT_FLOAT"}}}, {"name": "StatefulPartitionedCall/model/p_re_lu_31/Relu", "op": "Prelu", "input": ["StatefulPartitionedCall/model/tf.math.add_25/Add", "StatefulPartitionedCall/model/p_re_lu_31/Neg"]}, {"name": "StatefulPartitionedCall/model/conv2d_15/Conv2D", "op": "Conv2D", "input": ["StatefulPartitionedCall/model/p_re_lu_31/Relu", "StatefulPartitionedCall/model/conv2d_15/Conv2D/ReadVariableOp"], "device": "/device:CPU:0", "attr": {"dilations": {"list": {"i": ["1", "1", "1", "1"]}}, "explicit_paddings": {"list": {}}, "use_cudnn_on_gpu": {"b": true}, "T": {"type": "DT_FLOAT"}, "strides": {"list": {"i": ["1", "1", "1", "1"]}}, "padding": {"s": "VkFMSUQ="}, "data_format": {"s": "TkhXQw=="}}}, {"name": "StatefulPartitionedCall/model/tf.math.add_26/Add", "op": "AddV2", "input": ["StatefulPartitionedCall/model/conv2d_15/Conv2D", "StatefulPartitionedCall/model/tf.math.add_26/Add/y"], "attr": {"T": {"type": "DT_FLOAT"}}}, {"name": "StatefulPartitionedCall/model/tf.math.add_27/Add", "op": "AddV2", "input": ["StatefulPartitionedCall/model/tf.math.add_23/Add", "StatefulPartitionedCall/model/tf.math.add_26/Add"], "attr": {"T": {"type": "DT_FLOAT"}}}, {"name": "StatefulPartitionedCall/model/conv2d_16/Conv2D", "op": "Conv2D", "input": ["StatefulPartitionedCall/model/tf.math.add_27/Add", "StatefulPartitionedCall/model/conv2d_16/Conv2D/ReadVariableOp"], "device": "/device:CPU:0", "attr": {"T": {"type": "DT_FLOAT"}, "strides": {"list": {"i": ["1", "1", "1", "1"]}}, "padding": {"s": "VkFMSUQ="}, "use_cudnn_on_gpu": {"b": true}, "data_format": {"s": "TkhXQw=="}, "explicit_paddings": {"list": {}}, "dilations": {"list": {"i": ["1", "1", "1", "1"]}}}}, {"name": "StatefulPartitionedCall/model/tf.math.add_28/Add", "op": "AddV2", "input": ["StatefulPartitionedCall/model/conv2d_16/Conv2D", "StatefulPartitionedCall/model/tf.math.add_28/Add/y"], "attr": {"T": {"type": "DT_FLOAT"}}}, {"name": "StatefulPartitionedCall/model/p_re_lu_33/Relu", "op": "Prelu", "input": ["StatefulPartitionedCall/model/tf.math.add_28/Add", "StatefulPartitionedCall/model/p_re_lu_33/Neg"]}, {"name": "StatefulPartitionedCall/model/zero_padding2d_9/Pad", "op": "Pad", "input": ["StatefulPartitionedCall/model/p_re_lu_33/Relu", "StatefulPartitionedCall/model/zero_padding2d_9/Pad/paddings"], "attr": {"Tpaddings": {"type": "DT_INT32"}, "T": {"type": "DT_FLOAT"}}}, {"name": "StatefulPartitionedCall/model/depthwise_conv2d_8/depthwise", "op": "DepthwiseConv2dNative", "input": ["StatefulPartitionedCall/model/zero_padding2d_9/Pad", "StatefulPartitionedCall/model/depthwise_conv2d_8/depthwise/ReadVariableOp"], "attr": {"explicit_paddings": {"list": {}}, "data_format": {"s": "TkhXQw=="}, "strides": {"list": {"i": ["1", "1", "1", "1"]}}, "padding": {"s": "VkFMSUQ="}, "T": {"type": "DT_FLOAT"}, "dilations": {"list": {"i": ["1", "1", "1", "1"]}}}}, {"name": "StatefulPartitionedCall/model/tf.math.add_29/Add", "op": "AddV2", "input": ["StatefulPartitionedCall/model/depthwise_conv2d_8/depthwise", "StatefulPartitionedCall/model/tf.math.add_29/Add/y"], "attr": {"T": {"type": "DT_FLOAT"}}}, {"name": "StatefulPartitionedCall/model/p_re_lu_35/Relu", "op": "Prelu", "input": ["StatefulPartitionedCall/model/tf.math.add_29/Add", "StatefulPartitionedCall/model/p_re_lu_35/Neg"]}, {"name": "StatefulPartitionedCall/model/conv2d_17/Conv2D", "op": "Conv2D", "input": ["StatefulPartitionedCall/model/p_re_lu_35/Relu", "StatefulPartitionedCall/model/conv2d_17/Conv2D/ReadVariableOp"], "device": "/device:CPU:0", "attr": {"use_cudnn_on_gpu": {"b": true}, "explicit_paddings": {"list": {}}, "dilations": {"list": {"i": ["1", "1", "1", "1"]}}, "T": {"type": "DT_FLOAT"}, "strides": {"list": {"i": ["1", "1", "1", "1"]}}, "data_format": {"s": "TkhXQw=="}, "padding": {"s": "VkFMSUQ="}}}, {"name": "StatefulPartitionedCall/model/tf.math.add_30/Add", "op": "AddV2", "input": ["StatefulPartitionedCall/model/conv2d_17/Conv2D", "StatefulPartitionedCall/model/tf.math.add_30/Add/y"], "attr": {"T": {"type": "DT_FLOAT"}}}, {"name": "StatefulPartitionedCall/model/tf.math.add_31/Add", "op": "AddV2", "input": ["StatefulPartitionedCall/model/tf.math.add_27/Add", "StatefulPartitionedCall/model/tf.math.add_30/Add"], "attr": {"T": {"type": "DT_FLOAT"}}}, {"name": "StatefulPartitionedCall/model/conv2d_18/Conv2D", "op": "Conv2D", "input": ["StatefulPartitionedCall/model/tf.math.add_31/Add", "StatefulPartitionedCall/model/conv2d_18/Conv2D/ReadVariableOp"], "device": "/device:CPU:0", "attr": {"strides": {"list": {"i": ["1", "1", "1", "1"]}}, "explicit_paddings": {"list": {}}, "T": {"type": "DT_FLOAT"}, "use_cudnn_on_gpu": {"b": true}, "data_format": {"s": "TkhXQw=="}, "padding": {"s": "VkFMSUQ="}, "dilations": {"list": {"i": ["1", "1", "1", "1"]}}}}, {"name": "StatefulPartitionedCall/model/tf.math.add_32/Add", "op": "AddV2", "input": ["StatefulPartitionedCall/model/conv2d_18/Conv2D", "StatefulPartitionedCall/model/tf.math.add_32/Add/y"], "attr": {"T": {"type": "DT_FLOAT"}}}, {"name": "StatefulPartitionedCall/model/p_re_lu_37/Relu", "op": "Prelu", "input": ["StatefulPartitionedCall/model/tf.math.add_32/Add", "StatefulPartitionedCall/model/p_re_lu_37/Neg"]}, {"name": "StatefulPartitionedCall/model/zero_padding2d_10/Pad", "op": "Pad", "input": ["StatefulPartitionedCall/model/p_re_lu_37/Relu", "StatefulPartitionedCall/model/zero_padding2d_10/Pad/paddings"], "attr": {"Tpaddings": {"type": "DT_INT32"}, "T": {"type": "DT_FLOAT"}}}, {"name": "StatefulPartitionedCall/model/depthwise_conv2d_9/depthwise", "op": "DepthwiseConv2dNative", "input": ["StatefulPartitionedCall/model/zero_padding2d_10/Pad", "StatefulPartitionedCall/model/depthwise_conv2d_9/depthwise/ReadVariableOp"], "attr": {"data_format": {"s": "TkhXQw=="}, "explicit_paddings": {"list": {}}, "T": {"type": "DT_FLOAT"}, "dilations": {"list": {"i": ["1", "1", "1", "1"]}}, "padding": {"s": "VkFMSUQ="}, "strides": {"list": {"i": ["1", "1", "1", "1"]}}}}, {"name": "StatefulPartitionedCall/model/tf.math.add_33/Add", "op": "AddV2", "input": ["StatefulPartitionedCall/model/depthwise_conv2d_9/depthwise", "StatefulPartitionedCall/model/tf.math.add_33/Add/y"], "attr": {"T": {"type": "DT_FLOAT"}}}, {"name": "StatefulPartitionedCall/model/p_re_lu_39/Relu", "op": "Prelu", "input": ["StatefulPartitionedCall/model/tf.math.add_33/Add", "StatefulPartitionedCall/model/p_re_lu_39/Neg"]}, {"name": "StatefulPartitionedCall/model/conv2d_19/Conv2D", "op": "Conv2D", "input": ["StatefulPartitionedCall/model/p_re_lu_39/Relu", "StatefulPartitionedCall/model/conv2d_19/Conv2D/ReadVariableOp"], "device": "/device:CPU:0", "attr": {"data_format": {"s": "TkhXQw=="}, "strides": {"list": {"i": ["1", "1", "1", "1"]}}, "T": {"type": "DT_FLOAT"}, "padding": {"s": "VkFMSUQ="}, "use_cudnn_on_gpu": {"b": true}, "explicit_paddings": {"list": {}}, "dilations": {"list": {"i": ["1", "1", "1", "1"]}}}}, {"name": "StatefulPartitionedCall/model/tf.math.add_34/Add", "op": "AddV2", "input": ["StatefulPartitionedCall/model/conv2d_19/Conv2D", "StatefulPartitionedCall/model/tf.math.add_34/Add/y"], "attr": {"T": {"type": "DT_FLOAT"}}}, {"name": "StatefulPartitionedCall/model/tf.math.add_35/Add", "op": "AddV2", "input": ["StatefulPartitionedCall/model/tf.math.add_31/Add", "StatefulPartitionedCall/model/tf.math.add_34/Add"], "attr": {"T": {"type": "DT_FLOAT"}}}, {"name": "StatefulPartitionedCall/model/conv2d_20/Conv2D", "op": "Conv2D", "input": ["StatefulPartitionedCall/model/tf.math.add_35/Add", "StatefulPartitionedCall/model/conv2d_20/Conv2D/ReadVariableOp"], "device": "/device:CPU:0", "attr": {"use_cudnn_on_gpu": {"b": true}, "explicit_paddings": {"list": {}}, "T": {"type": "DT_FLOAT"}, "padding": {"s": "VkFMSUQ="}, "strides": {"list": {"i": ["1", "1", "1", "1"]}}, "data_format": {"s": "TkhXQw=="}, "dilations": {"list": {"i": ["1", "1", "1", "1"]}}}}, {"name": "StatefulPartitionedCall/model/tf.math.add_36/Add", "op": "AddV2", "input": ["StatefulPartitionedCall/model/conv2d_20/Conv2D", "StatefulPartitionedCall/model/tf.math.add_36/Add/y"], "attr": {"T": {"type": "DT_FLOAT"}}}, {"name": "StatefulPartitionedCall/model/p_re_lu_41/Relu", "op": "Prelu", "input": ["StatefulPartitionedCall/model/tf.math.add_36/Add", "StatefulPartitionedCall/model/p_re_lu_41/Neg"]}, {"name": "StatefulPartitionedCall/model/zero_padding2d_11/Pad", "op": "Pad", "input": ["StatefulPartitionedCall/model/p_re_lu_41/Relu", "StatefulPartitionedCall/model/zero_padding2d_11/Pad/paddings"], "attr": {"T": {"type": "DT_FLOAT"}, "Tpaddings": {"type": "DT_INT32"}}}, {"name": "StatefulPartitionedCall/model/depthwise_conv2d_10/depthwise", "op": "DepthwiseConv2dNative", "input": ["StatefulPartitionedCall/model/zero_padding2d_11/Pad", "StatefulPartitionedCall/model/depthwise_conv2d_10/depthwise/ReadVariableOp"], "attr": {"data_format": {"s": "TkhXQw=="}, "strides": {"list": {"i": ["1", "2", "2", "1"]}}, "padding": {"s": "VkFMSUQ="}, "explicit_paddings": {"list": {}}, "dilations": {"list": {"i": ["1", "1", "1", "1"]}}, "T": {"type": "DT_FLOAT"}}}, {"name": "StatefulPartitionedCall/model/tf.math.add_37/Add", "op": "AddV2", "input": ["StatefulPartitionedCall/model/depthwise_conv2d_10/depthwise", "StatefulPartitionedCall/model/tf.math.add_37/Add/y"], "attr": {"T": {"type": "DT_FLOAT"}}}, {"name": "StatefulPartitionedCall/model/p_re_lu_43/Relu", "op": "Prelu", "input": ["StatefulPartitionedCall/model/tf.math.add_37/Add", "StatefulPartitionedCall/model/p_re_lu_43/Neg"]}, {"name": "StatefulPartitionedCall/model/conv2d_21/Conv2D", "op": "Conv2D", "input": ["StatefulPartitionedCall/model/p_re_lu_43/Relu", "StatefulPartitionedCall/model/conv2d_21/Conv2D/ReadVariableOp"], "device": "/device:CPU:0", "attr": {"strides": {"list": {"i": ["1", "1", "1", "1"]}}, "data_format": {"s": "TkhXQw=="}, "padding": {"s": "VkFMSUQ="}, "use_cudnn_on_gpu": {"b": true}, "explicit_paddings": {"list": {}}, "T": {"type": "DT_FLOAT"}, "dilations": {"list": {"i": ["1", "1", "1", "1"]}}}}, {"name": "StatefulPartitionedCall/model/tf.math.add_38/Add", "op": "AddV2", "input": ["StatefulPartitionedCall/model/conv2d_21/Conv2D", "StatefulPartitionedCall/model/tf.math.add_38/Add/y"], "attr": {"T": {"type": "DT_FLOAT"}}}, {"name": "StatefulPartitionedCall/model/conv2d_22/Conv2D", "op": "Conv2D", "input": ["StatefulPartitionedCall/model/tf.math.add_38/Add", "StatefulPartitionedCall/model/conv2d_22/Conv2D/ReadVariableOp"], "device": "/device:CPU:0", "attr": {"use_cudnn_on_gpu": {"b": true}, "data_format": {"s": "TkhXQw=="}, "strides": {"list": {"i": ["1", "1", "1", "1"]}}, "dilations": {"list": {"i": ["1", "1", "1", "1"]}}, "explicit_paddings": {"list": {}}, "T": {"type": "DT_FLOAT"}, "padding": {"s": "VkFMSUQ="}}}, {"name": "StatefulPartitionedCall/model/tf.math.add_39/Add", "op": "AddV2", "input": ["StatefulPartitionedCall/model/conv2d_22/Conv2D", "StatefulPartitionedCall/model/tf.math.add_39/Add/y"], "attr": {"T": {"type": "DT_FLOAT"}}}, {"name": "StatefulPartitionedCall/model/p_re_lu_45/Relu", "op": "Prelu", "input": ["StatefulPartitionedCall/model/tf.math.add_39/Add", "StatefulPartitionedCall/model/p_re_lu_45/Neg"]}, {"name": "StatefulPartitionedCall/model/zero_padding2d_12/Pad", "op": "Pad", "input": ["StatefulPartitionedCall/model/p_re_lu_45/Relu", "StatefulPartitionedCall/model/zero_padding2d_12/Pad/paddings"], "attr": {"Tpaddings": {"type": "DT_INT32"}, "T": {"type": "DT_FLOAT"}}}, {"name": "StatefulPartitionedCall/model/depthwise_conv2d_11/depthwise", "op": "DepthwiseConv2dNative", "input": ["StatefulPartitionedCall/model/zero_padding2d_12/Pad", "StatefulPartitionedCall/model/depthwise_conv2d_11/depthwise/ReadVariableOp"], "attr": {"padding": {"s": "VkFMSUQ="}, "explicit_paddings": {"list": {}}, "data_format": {"s": "TkhXQw=="}, "strides": {"list": {"i": ["1", "1", "1", "1"]}}, "T": {"type": "DT_FLOAT"}, "dilations": {"list": {"i": ["1", "1", "1", "1"]}}}}, {"name": "StatefulPartitionedCall/model/tf.math.add_40/Add", "op": "AddV2", "input": ["StatefulPartitionedCall/model/depthwise_conv2d_11/depthwise", "StatefulPartitionedCall/model/tf.math.add_40/Add/y"], "attr": {"T": {"type": "DT_FLOAT"}}}, {"name": "StatefulPartitionedCall/model/p_re_lu_47/Relu", "op": "Prelu", "input": ["StatefulPartitionedCall/model/tf.math.add_40/Add", "StatefulPartitionedCall/model/p_re_lu_47/Neg"]}, {"name": "StatefulPartitionedCall/model/conv2d_23/Conv2D", "op": "Conv2D", "input": ["StatefulPartitionedCall/model/p_re_lu_47/Relu", "StatefulPartitionedCall/model/conv2d_23/Conv2D/ReadVariableOp"], "device": "/device:CPU:0", "attr": {"explicit_paddings": {"list": {}}, "padding": {"s": "VkFMSUQ="}, "data_format": {"s": "TkhXQw=="}, "strides": {"list": {"i": ["1", "1", "1", "1"]}}, "T": {"type": "DT_FLOAT"}, "dilations": {"list": {"i": ["1", "1", "1", "1"]}}, "use_cudnn_on_gpu": {"b": true}}}, {"name": "StatefulPartitionedCall/model/tf.math.add_41/Add", "op": "AddV2", "input": ["StatefulPartitionedCall/model/conv2d_23/Conv2D", "StatefulPartitionedCall/model/tf.math.add_41/Add/y"], "attr": {"T": {"type": "DT_FLOAT"}}}, {"name": "StatefulPartitionedCall/model/tf.math.add_42/Add", "op": "AddV2", "input": ["StatefulPartitionedCall/model/tf.math.add_38/Add", "StatefulPartitionedCall/model/tf.math.add_41/Add"], "attr": {"T": {"type": "DT_FLOAT"}}}, {"name": "StatefulPartitionedCall/model/conv2d_24/Conv2D", "op": "Conv2D", "input": ["StatefulPartitionedCall/model/tf.math.add_42/Add", "StatefulPartitionedCall/model/conv2d_24/Conv2D/ReadVariableOp"], "device": "/device:CPU:0", "attr": {"strides": {"list": {"i": ["1", "1", "1", "1"]}}, "use_cudnn_on_gpu": {"b": true}, "dilations": {"list": {"i": ["1", "1", "1", "1"]}}, "T": {"type": "DT_FLOAT"}, "explicit_paddings": {"list": {}}, "data_format": {"s": "TkhXQw=="}, "padding": {"s": "VkFMSUQ="}}}, {"name": "StatefulPartitionedCall/model/tf.math.add_43/Add", "op": "AddV2", "input": ["StatefulPartitionedCall/model/conv2d_24/Conv2D", "StatefulPartitionedCall/model/tf.math.add_43/Add/y"], "attr": {"T": {"type": "DT_FLOAT"}}}, {"name": "StatefulPartitionedCall/model/p_re_lu_49/Relu", "op": "Prelu", "input": ["StatefulPartitionedCall/model/tf.math.add_43/Add", "StatefulPartitionedCall/model/p_re_lu_49/Neg"]}, {"name": "StatefulPartitionedCall/model/zero_padding2d_13/Pad", "op": "Pad", "input": ["StatefulPartitionedCall/model/p_re_lu_49/Relu", "StatefulPartitionedCall/model/zero_padding2d_13/Pad/paddings"], "attr": {"T": {"type": "DT_FLOAT"}, "Tpaddings": {"type": "DT_INT32"}}}, {"name": "StatefulPartitionedCall/model/depthwise_conv2d_12/depthwise", "op": "DepthwiseConv2dNative", "input": ["StatefulPartitionedCall/model/zero_padding2d_13/Pad", "StatefulPartitionedCall/model/depthwise_conv2d_12/depthwise/ReadVariableOp"], "attr": {"data_format": {"s": "TkhXQw=="}, "T": {"type": "DT_FLOAT"}, "explicit_paddings": {"list": {}}, "dilations": {"list": {"i": ["1", "1", "1", "1"]}}, "padding": {"s": "VkFMSUQ="}, "strides": {"list": {"i": ["1", "1", "1", "1"]}}}}, {"name": "StatefulPartitionedCall/model/tf.math.add_44/Add", "op": "AddV2", "input": ["StatefulPartitionedCall/model/depthwise_conv2d_12/depthwise", "StatefulPartitionedCall/model/tf.math.add_44/Add/y"], "attr": {"T": {"type": "DT_FLOAT"}}}, {"name": "StatefulPartitionedCall/model/p_re_lu_51/Relu", "op": "Prelu", "input": ["StatefulPartitionedCall/model/tf.math.add_44/Add", "StatefulPartitionedCall/model/p_re_lu_51/Neg"]}, {"name": "StatefulPartitionedCall/model/conv2d_25/Conv2D", "op": "Conv2D", "input": ["StatefulPartitionedCall/model/p_re_lu_51/Relu", "StatefulPartitionedCall/model/conv2d_25/Conv2D/ReadVariableOp"], "device": "/device:CPU:0", "attr": {"data_format": {"s": "TkhXQw=="}, "explicit_paddings": {"list": {}}, "T": {"type": "DT_FLOAT"}, "use_cudnn_on_gpu": {"b": true}, "dilations": {"list": {"i": ["1", "1", "1", "1"]}}, "strides": {"list": {"i": ["1", "1", "1", "1"]}}, "padding": {"s": "VkFMSUQ="}}}, {"name": "StatefulPartitionedCall/model/tf.math.add_45/Add", "op": "AddV2", "input": ["StatefulPartitionedCall/model/conv2d_25/Conv2D", "StatefulPartitionedCall/model/tf.math.add_45/Add/y"], "attr": {"T": {"type": "DT_FLOAT"}}}, {"name": "StatefulPartitionedCall/model/tf.math.add_46/Add", "op": "AddV2", "input": ["StatefulPartitionedCall/model/tf.math.add_42/Add", "StatefulPartitionedCall/model/tf.math.add_45/Add"], "attr": {"T": {"type": "DT_FLOAT"}}}, {"name": "StatefulPartitionedCall/model/conv2d_26/Conv2D", "op": "Conv2D", "input": ["StatefulPartitionedCall/model/tf.math.add_46/Add", "StatefulPartitionedCall/model/conv2d_26/Conv2D/ReadVariableOp"], "device": "/device:CPU:0", "attr": {"T": {"type": "DT_FLOAT"}, "use_cudnn_on_gpu": {"b": true}, "explicit_paddings": {"list": {}}, "data_format": {"s": "TkhXQw=="}, "padding": {"s": "VkFMSUQ="}, "dilations": {"list": {"i": ["1", "1", "1", "1"]}}, "strides": {"list": {"i": ["1", "1", "1", "1"]}}}}, {"name": "StatefulPartitionedCall/model/tf.math.add_47/Add", "op": "AddV2", "input": ["StatefulPartitionedCall/model/conv2d_26/Conv2D", "StatefulPartitionedCall/model/tf.math.add_47/Add/y"], "attr": {"T": {"type": "DT_FLOAT"}}}, {"name": "StatefulPartitionedCall/model/p_re_lu_53/Relu", "op": "Prelu", "input": ["StatefulPartitionedCall/model/tf.math.add_47/Add", "StatefulPartitionedCall/model/p_re_lu_53/Neg"]}, {"name": "StatefulPartitionedCall/model/zero_padding2d_14/Pad", "op": "Pad", "input": ["StatefulPartitionedCall/model/p_re_lu_53/Relu", "StatefulPartitionedCall/model/zero_padding2d_14/Pad/paddings"], "attr": {"T": {"type": "DT_FLOAT"}, "Tpaddings": {"type": "DT_INT32"}}}, {"name": "StatefulPartitionedCall/model/depthwise_conv2d_13/depthwise", "op": "DepthwiseConv2dNative", "input": ["StatefulPartitionedCall/model/zero_padding2d_14/Pad", "StatefulPartitionedCall/model/depthwise_conv2d_13/depthwise/ReadVariableOp"], "attr": {"T": {"type": "DT_FLOAT"}, "dilations": {"list": {"i": ["1", "1", "1", "1"]}}, "data_format": {"s": "TkhXQw=="}, "explicit_paddings": {"list": {}}, "strides": {"list": {"i": ["1", "1", "1", "1"]}}, "padding": {"s": "VkFMSUQ="}}}, {"name": "StatefulPartitionedCall/model/tf.math.add_48/Add", "op": "AddV2", "input": ["StatefulPartitionedCall/model/depthwise_conv2d_13/depthwise", "StatefulPartitionedCall/model/tf.math.add_48/Add/y"], "attr": {"T": {"type": "DT_FLOAT"}}}, {"name": "StatefulPartitionedCall/model/p_re_lu_55/Relu", "op": "Prelu", "input": ["StatefulPartitionedCall/model/tf.math.add_48/Add", "StatefulPartitionedCall/model/p_re_lu_55/Neg"]}, {"name": "StatefulPartitionedCall/model/conv2d_27/Conv2D", "op": "Conv2D", "input": ["StatefulPartitionedCall/model/p_re_lu_55/Relu", "StatefulPartitionedCall/model/conv2d_27/Conv2D/ReadVariableOp"], "device": "/device:CPU:0", "attr": {"data_format": {"s": "TkhXQw=="}, "padding": {"s": "VkFMSUQ="}, "T": {"type": "DT_FLOAT"}, "explicit_paddings": {"list": {}}, "dilations": {"list": {"i": ["1", "1", "1", "1"]}}, "strides": {"list": {"i": ["1", "1", "1", "1"]}}, "use_cudnn_on_gpu": {"b": true}}}, {"name": "StatefulPartitionedCall/model/tf.math.add_49/Add", "op": "AddV2", "input": ["StatefulPartitionedCall/model/conv2d_27/Conv2D", "StatefulPartitionedCall/model/tf.math.add_49/Add/y"], "attr": {"T": {"type": "DT_FLOAT"}}}, {"name": "StatefulPartitionedCall/model/conv2d_28/Conv2D", "op": "Conv2D", "input": ["StatefulPartitionedCall/model/tf.math.add_49/Add", "StatefulPartitionedCall/model/conv2d_28/Conv2D/ReadVariableOp"], "device": "/device:CPU:0", "attr": {"T": {"type": "DT_FLOAT"}, "strides": {"list": {"i": ["1", "1", "1", "1"]}}, "dilations": {"list": {"i": ["1", "1", "1", "1"]}}, "padding": {"s": "VkFMSUQ="}, "use_cudnn_on_gpu": {"b": true}, "data_format": {"s": "TkhXQw=="}, "explicit_paddings": {"list": {}}}}, {"name": "StatefulPartitionedCall/model/tf.math.add_50/Add", "op": "AddV2", "input": ["StatefulPartitionedCall/model/conv2d_28/Conv2D", "StatefulPartitionedCall/model/tf.math.add_50/Add/y"], "attr": {"T": {"type": "DT_FLOAT"}}}, {"name": "StatefulPartitionedCall/model/p_re_lu_57/Relu", "op": "Prelu", "input": ["StatefulPartitionedCall/model/tf.math.add_50/Add", "StatefulPartitionedCall/model/p_re_lu_57/Neg"]}, {"name": "StatefulPartitionedCall/model/zero_padding2d_15/Pad", "op": "Pad", "input": ["StatefulPartitionedCall/model/p_re_lu_57/Relu", "StatefulPartitionedCall/model/zero_padding2d_15/Pad/paddings"], "attr": {"Tpaddings": {"type": "DT_INT32"}, "T": {"type": "DT_FLOAT"}}}, {"name": "StatefulPartitionedCall/model/depthwise_conv2d_14/depthwise", "op": "DepthwiseConv2dNative", "input": ["StatefulPartitionedCall/model/zero_padding2d_15/Pad", "StatefulPartitionedCall/model/depthwise_conv2d_14/depthwise/ReadVariableOp"], "attr": {"data_format": {"s": "TkhXQw=="}, "T": {"type": "DT_FLOAT"}, "dilations": {"list": {"i": ["1", "1", "1", "1"]}}, "padding": {"s": "VkFMSUQ="}, "strides": {"list": {"i": ["1", "1", "1", "1"]}}, "explicit_paddings": {"list": {}}}}, {"name": "StatefulPartitionedCall/model/tf.math.add_51/Add", "op": "AddV2", "input": ["StatefulPartitionedCall/model/depthwise_conv2d_14/depthwise", "StatefulPartitionedCall/model/tf.math.add_51/Add/y"], "attr": {"T": {"type": "DT_FLOAT"}}}, {"name": "StatefulPartitionedCall/model/p_re_lu_59/Relu", "op": "Prelu", "input": ["StatefulPartitionedCall/model/tf.math.add_51/Add", "StatefulPartitionedCall/model/p_re_lu_59/Neg"]}, {"name": "StatefulPartitionedCall/model/conv2d_29/Conv2D", "op": "Conv2D", "input": ["StatefulPartitionedCall/model/p_re_lu_59/Relu", "StatefulPartitionedCall/model/conv2d_29/Conv2D/ReadVariableOp"], "device": "/device:CPU:0", "attr": {"padding": {"s": "VkFMSUQ="}, "dilations": {"list": {"i": ["1", "1", "1", "1"]}}, "use_cudnn_on_gpu": {"b": true}, "strides": {"list": {"i": ["1", "1", "1", "1"]}}, "data_format": {"s": "TkhXQw=="}, "explicit_paddings": {"list": {}}, "T": {"type": "DT_FLOAT"}}}, {"name": "StatefulPartitionedCall/model/tf.math.add_52/Add", "op": "AddV2", "input": ["StatefulPartitionedCall/model/conv2d_29/Conv2D", "StatefulPartitionedCall/model/tf.math.add_52/Add/y"], "attr": {"T": {"type": "DT_FLOAT"}}}, {"name": "StatefulPartitionedCall/model/tf.math.add_53/Add", "op": "AddV2", "input": ["StatefulPartitionedCall/model/tf.math.add_49/Add", "StatefulPartitionedCall/model/tf.math.add_52/Add"], "attr": {"T": {"type": "DT_FLOAT"}}}, {"name": "StatefulPartitionedCall/model/conv2d_30/Conv2D", "op": "Conv2D", "input": ["StatefulPartitionedCall/model/tf.math.add_53/Add", "StatefulPartitionedCall/model/conv2d_30/Conv2D/ReadVariableOp"], "device": "/device:CPU:0", "attr": {"explicit_paddings": {"list": {}}, "T": {"type": "DT_FLOAT"}, "data_format": {"s": "TkhXQw=="}, "padding": {"s": "VkFMSUQ="}, "dilations": {"list": {"i": ["1", "1", "1", "1"]}}, "strides": {"list": {"i": ["1", "1", "1", "1"]}}, "use_cudnn_on_gpu": {"b": true}}}, {"name": "StatefulPartitionedCall/model/tf.math.add_54/Add", "op": "AddV2", "input": ["StatefulPartitionedCall/model/conv2d_30/Conv2D", "StatefulPartitionedCall/model/tf.math.add_54/Add/y"], "attr": {"T": {"type": "DT_FLOAT"}}}, {"name": "StatefulPartitionedCall/model/p_re_lu_61/Relu", "op": "Prelu", "input": ["StatefulPartitionedCall/model/tf.math.add_54/Add", "StatefulPartitionedCall/model/p_re_lu_61/Neg"]}, {"name": "StatefulPartitionedCall/model/zero_padding2d_16/Pad", "op": "Pad", "input": ["StatefulPartitionedCall/model/p_re_lu_61/Relu", "StatefulPartitionedCall/model/zero_padding2d_16/Pad/paddings"], "attr": {"Tpaddings": {"type": "DT_INT32"}, "T": {"type": "DT_FLOAT"}}}, {"name": "StatefulPartitionedCall/model/depthwise_conv2d_15/depthwise", "op": "DepthwiseConv2dNative", "input": ["StatefulPartitionedCall/model/zero_padding2d_16/Pad", "StatefulPartitionedCall/model/depthwise_conv2d_15/depthwise/ReadVariableOp"], "attr": {"explicit_paddings": {"list": {}}, "dilations": {"list": {"i": ["1", "1", "1", "1"]}}, "data_format": {"s": "TkhXQw=="}, "padding": {"s": "VkFMSUQ="}, "T": {"type": "DT_FLOAT"}, "strides": {"list": {"i": ["1", "1", "1", "1"]}}}}, {"name": "StatefulPartitionedCall/model/tf.math.add_55/Add", "op": "AddV2", "input": ["StatefulPartitionedCall/model/depthwise_conv2d_15/depthwise", "StatefulPartitionedCall/model/tf.math.add_55/Add/y"], "attr": {"T": {"type": "DT_FLOAT"}}}, {"name": "StatefulPartitionedCall/model/p_re_lu_63/Relu", "op": "Prelu", "input": ["StatefulPartitionedCall/model/tf.math.add_55/Add", "StatefulPartitionedCall/model/p_re_lu_63/Neg"]}, {"name": "StatefulPartitionedCall/model/conv2d_31/Conv2D", "op": "Conv2D", "input": ["StatefulPartitionedCall/model/p_re_lu_63/Relu", "StatefulPartitionedCall/model/conv2d_31/Conv2D/ReadVariableOp"], "device": "/device:CPU:0", "attr": {"T": {"type": "DT_FLOAT"}, "strides": {"list": {"i": ["1", "1", "1", "1"]}}, "data_format": {"s": "TkhXQw=="}, "padding": {"s": "VkFMSUQ="}, "explicit_paddings": {"list": {}}, "use_cudnn_on_gpu": {"b": true}, "dilations": {"list": {"i": ["1", "1", "1", "1"]}}}}, {"name": "StatefulPartitionedCall/model/tf.math.add_56/Add", "op": "AddV2", "input": ["StatefulPartitionedCall/model/conv2d_31/Conv2D", "StatefulPartitionedCall/model/tf.math.add_56/Add/y"], "attr": {"T": {"type": "DT_FLOAT"}}}, {"name": "StatefulPartitionedCall/model/tf.math.add_57/Add", "op": "AddV2", "input": ["StatefulPartitionedCall/model/tf.math.add_53/Add", "StatefulPartitionedCall/model/tf.math.add_56/Add"], "attr": {"T": {"type": "DT_FLOAT"}}}, {"name": "StatefulPartitionedCall/model/conv2d_32/Conv2D", "op": "Conv2D", "input": ["StatefulPartitionedCall/model/tf.math.add_57/Add", "StatefulPartitionedCall/model/conv2d_32/Conv2D/ReadVariableOp"], "device": "/device:CPU:0", "attr": {"explicit_paddings": {"list": {}}, "data_format": {"s": "TkhXQw=="}, "T": {"type": "DT_FLOAT"}, "padding": {"s": "VkFMSUQ="}, "dilations": {"list": {"i": ["1", "1", "1", "1"]}}, "use_cudnn_on_gpu": {"b": true}, "strides": {"list": {"i": ["1", "1", "1", "1"]}}}}, {"name": "StatefulPartitionedCall/model/tf.math.add_58/Add", "op": "AddV2", "input": ["StatefulPartitionedCall/model/conv2d_32/Conv2D", "StatefulPartitionedCall/model/tf.math.add_58/Add/y"], "attr": {"T": {"type": "DT_FLOAT"}}}, {"name": "StatefulPartitionedCall/model/p_re_lu_65/Relu", "op": "Prelu", "input": ["StatefulPartitionedCall/model/tf.math.add_58/Add", "StatefulPartitionedCall/model/p_re_lu_65/Neg"]}, {"name": "StatefulPartitionedCall/model/zero_padding2d_17/Pad", "op": "Pad", "input": ["StatefulPartitionedCall/model/p_re_lu_65/Relu", "StatefulPartitionedCall/model/zero_padding2d_17/Pad/paddings"], "attr": {"Tpaddings": {"type": "DT_INT32"}, "T": {"type": "DT_FLOAT"}}}, {"name": "StatefulPartitionedCall/model/depthwise_conv2d_16/depthwise", "op": "DepthwiseConv2dNative", "input": ["StatefulPartitionedCall/model/zero_padding2d_17/Pad", "StatefulPartitionedCall/model/depthwise_conv2d_16/depthwise/ReadVariableOp"], "attr": {"explicit_paddings": {"list": {}}, "dilations": {"list": {"i": ["1", "1", "1", "1"]}}, "T": {"type": "DT_FLOAT"}, "strides": {"list": {"i": ["1", "1", "1", "1"]}}, "data_format": {"s": "TkhXQw=="}, "padding": {"s": "VkFMSUQ="}}}, {"name": "StatefulPartitionedCall/model/tf.math.add_59/Add", "op": "AddV2", "input": ["StatefulPartitionedCall/model/depthwise_conv2d_16/depthwise", "StatefulPartitionedCall/model/tf.math.add_59/Add/y"], "attr": {"T": {"type": "DT_FLOAT"}}}, {"name": "StatefulPartitionedCall/model/p_re_lu_67/Relu", "op": "Prelu", "input": ["StatefulPartitionedCall/model/tf.math.add_59/Add", "StatefulPartitionedCall/model/p_re_lu_67/Neg"]}, {"name": "StatefulPartitionedCall/model/conv2d_33/Conv2D", "op": "Conv2D", "input": ["StatefulPartitionedCall/model/p_re_lu_67/Relu", "StatefulPartitionedCall/model/conv2d_33/Conv2D/ReadVariableOp"], "device": "/device:CPU:0", "attr": {"padding": {"s": "VkFMSUQ="}, "dilations": {"list": {"i": ["1", "1", "1", "1"]}}, "T": {"type": "DT_FLOAT"}, "explicit_paddings": {"list": {}}, "data_format": {"s": "TkhXQw=="}, "use_cudnn_on_gpu": {"b": true}, "strides": {"list": {"i": ["1", "1", "1", "1"]}}}}, {"name": "StatefulPartitionedCall/model/tf.math.add_60/Add", "op": "AddV2", "input": ["StatefulPartitionedCall/model/conv2d_33/Conv2D", "StatefulPartitionedCall/model/tf.math.add_60/Add/y"], "attr": {"T": {"type": "DT_FLOAT"}}}, {"name": "StatefulPartitionedCall/model/conv2d_34/Conv2D", "op": "Conv2D", "input": ["StatefulPartitionedCall/model/tf.math.add_60/Add", "StatefulPartitionedCall/model/conv2d_34/Conv2D/ReadVariableOp"], "device": "/device:CPU:0", "attr": {"strides": {"list": {"i": ["1", "1", "1", "1"]}}, "dilations": {"list": {"i": ["1", "1", "1", "1"]}}, "explicit_paddings": {"list": {}}, "T": {"type": "DT_FLOAT"}, "data_format": {"s": "TkhXQw=="}, "use_cudnn_on_gpu": {"b": true}, "padding": {"s": "VkFMSUQ="}}}, {"name": "StatefulPartitionedCall/model/tf.math.add_61/Add", "op": "AddV2", "input": ["StatefulPartitionedCall/model/conv2d_34/Conv2D", "StatefulPartitionedCall/model/tf.math.add_61/Add/y"], "attr": {"T": {"type": "DT_FLOAT"}}}, {"name": "StatefulPartitionedCall/model/p_re_lu_69/Relu", "op": "Prelu", "input": ["StatefulPartitionedCall/model/tf.math.add_61/Add", "StatefulPartitionedCall/model/p_re_lu_69/Neg"]}, {"name": "StatefulPartitionedCall/model/tf.concat/concat", "op": "ConcatV2", "input": ["StatefulPartitionedCall/model/tf.math.add_46/Add", "StatefulPartitionedCall/model/p_re_lu_69/Relu", "StatefulPartitionedCall/model/tf.concat/concat/axis"], "attr": {"Tidx": {"type": "DT_INT32"}, "T": {"type": "DT_FLOAT"}, "N": {"i": "2"}}}, {"name": "StatefulPartitionedCall/model/conv2d_35/Conv2D", "op": "Conv2D", "input": ["StatefulPartitionedCall/model/tf.concat/concat", "StatefulPartitionedCall/model/conv2d_35/Conv2D/ReadVariableOp"], "device": "/device:CPU:0", "attr": {"padding": {"s": "VkFMSUQ="}, "use_cudnn_on_gpu": {"b": true}, "explicit_paddings": {"list": {}}, "dilations": {"list": {"i": ["1", "1", "1", "1"]}}, "data_format": {"s": "TkhXQw=="}, "T": {"type": "DT_FLOAT"}, "strides": {"list": {"i": ["1", "1", "1", "1"]}}}}, {"name": "StatefulPartitionedCall/model/tf.math.add_62/Add", "op": "AddV2", "input": ["StatefulPartitionedCall/model/conv2d_35/Conv2D", "StatefulPartitionedCall/model/tf.math.add_62/Add/y"], "attr": {"T": {"type": "DT_FLOAT"}}}, {"name": "StatefulPartitionedCall/model/p_re_lu_71/Relu", "op": "Prelu", "input": ["StatefulPartitionedCall/model/tf.math.add_62/Add", "StatefulPartitionedCall/model/p_re_lu_71/Neg"]}, {"name": "StatefulPartitionedCall/model/zero_padding2d_18/Pad", "op": "Pad", "input": ["StatefulPartitionedCall/model/p_re_lu_71/Relu", "StatefulPartitionedCall/model/zero_padding2d_18/Pad/paddings"], "attr": {"T": {"type": "DT_FLOAT"}, "Tpaddings": {"type": "DT_INT32"}}}, {"name": "StatefulPartitionedCall/model/conv2d_36/Conv2D", "op": "Conv2D", "input": ["StatefulPartitionedCall/model/zero_padding2d_18/Pad", "StatefulPartitionedCall/model/conv2d_36/Conv2D/ReadVariableOp"], "device": "/device:CPU:0", "attr": {"explicit_paddings": {"list": {}}, "data_format": {"s": "TkhXQw=="}, "padding": {"s": "VkFMSUQ="}, "dilations": {"list": {"i": ["1", "1", "1", "1"]}}, "use_cudnn_on_gpu": {"b": true}, "strides": {"list": {"i": ["1", "1", "1", "1"]}}, "T": {"type": "DT_FLOAT"}}}, {"name": "StatefulPartitionedCall/model/tf.math.add_63/Add", "op": "AddV2", "input": ["StatefulPartitionedCall/model/conv2d_36/Conv2D", "StatefulPartitionedCall/model/tf.math.add_63/Add/y"], "attr": {"T": {"type": "DT_FLOAT"}}}, {"name": "StatefulPartitionedCall/model/p_re_lu_73/Relu", "op": "Prelu", "input": ["StatefulPartitionedCall/model/tf.math.add_63/Add", "StatefulPartitionedCall/model/p_re_lu_73/Neg"]}, {"name": "StatefulPartitionedCall/model/lambda/resize/ResizeBilinear", "op": "ResizeBilinear", "input": ["StatefulPartitionedCall/model/p_re_lu_73/Relu", "StatefulPartitionedCall/model/lambda/resize/size"], "attr": {"T": {"type": "DT_FLOAT"}, "align_corners": {"b": false}, "half_pixel_centers": {"b": true}}}, {"name": "StatefulPartitionedCall/model/tf.concat_1/concat", "op": "ConcatV2", "input": ["StatefulPartitionedCall/model/tf.math.add_35/Add", "StatefulPartitionedCall/model/lambda/resize/ResizeBilinear", "StatefulPartitionedCall/model/tf.concat_1/concat/axis"], "attr": {"N": {"i": "2"}, "T": {"type": "DT_FLOAT"}, "Tidx": {"type": "DT_INT32"}}}, {"name": "StatefulPartitionedCall/model/conv2d_37/Conv2D", "op": "Conv2D", "input": ["StatefulPartitionedCall/model/tf.concat_1/concat", "StatefulPartitionedCall/model/conv2d_37/Conv2D/ReadVariableOp"], "device": "/device:CPU:0", "attr": {"explicit_paddings": {"list": {}}, "T": {"type": "DT_FLOAT"}, "strides": {"list": {"i": ["1", "1", "1", "1"]}}, "padding": {"s": "VkFMSUQ="}, "dilations": {"list": {"i": ["1", "1", "1", "1"]}}, "use_cudnn_on_gpu": {"b": true}, "data_format": {"s": "TkhXQw=="}}}, {"name": "StatefulPartitionedCall/model/tf.math.add_64/Add", "op": "AddV2", "input": ["StatefulPartitionedCall/model/conv2d_37/Conv2D", "StatefulPartitionedCall/model/tf.math.add_64/Add/y"], "attr": {"T": {"type": "DT_FLOAT"}}}, {"name": "StatefulPartitionedCall/model/p_re_lu_75/Relu", "op": "Prelu", "input": ["StatefulPartitionedCall/model/tf.math.add_64/Add", "StatefulPartitionedCall/model/p_re_lu_75/Neg"]}, {"name": "StatefulPartitionedCall/model/zero_padding2d_19/Pad", "op": "Pad", "input": ["StatefulPartitionedCall/model/p_re_lu_75/Relu", "StatefulPartitionedCall/model/zero_padding2d_19/Pad/paddings"], "attr": {"T": {"type": "DT_FLOAT"}, "Tpaddings": {"type": "DT_INT32"}}}, {"name": "StatefulPartitionedCall/model/conv2d_38/Conv2D", "op": "Conv2D", "input": ["StatefulPartitionedCall/model/zero_padding2d_19/Pad", "StatefulPartitionedCall/model/conv2d_38/Conv2D/ReadVariableOp"], "device": "/device:CPU:0", "attr": {"padding": {"s": "VkFMSUQ="}, "dilations": {"list": {"i": ["1", "1", "1", "1"]}}, "data_format": {"s": "TkhXQw=="}, "strides": {"list": {"i": ["1", "1", "1", "1"]}}, "explicit_paddings": {"list": {}}, "use_cudnn_on_gpu": {"b": true}, "T": {"type": "DT_FLOAT"}}}, {"name": "StatefulPartitionedCall/model/tf.math.add_65/Add", "op": "AddV2", "input": ["StatefulPartitionedCall/model/conv2d_38/Conv2D", "StatefulPartitionedCall/model/tf.math.add_65/Add/y"], "attr": {"T": {"type": "DT_FLOAT"}}}, {"name": "StatefulPartitionedCall/model/p_re_lu_77/Relu", "op": "Prelu", "input": ["StatefulPartitionedCall/model/tf.math.add_65/Add", "StatefulPartitionedCall/model/p_re_lu_77/Neg"]}, {"name": "StatefulPartitionedCall/model/lambda_1/resize/ResizeBilinear", "op": "ResizeBilinear", "input": ["StatefulPartitionedCall/model/p_re_lu_77/Relu", "StatefulPartitionedCall/model/lambda_1/resize/size"], "attr": {"align_corners": {"b": false}, "T": {"type": "DT_FLOAT"}, "half_pixel_centers": {"b": true}}}, {"name": "StatefulPartitionedCall/model/tf.concat_2/concat", "op": "ConcatV2", "input": ["StatefulPartitionedCall/model/tf.math.add_20/Add", "StatefulPartitionedCall/model/lambda_1/resize/ResizeBilinear", "StatefulPartitionedCall/model/tf.concat_2/concat/axis"], "attr": {"N": {"i": "2"}, "T": {"type": "DT_FLOAT"}, "Tidx": {"type": "DT_INT32"}}}, {"name": "StatefulPartitionedCall/model/conv2d_39/Conv2D", "op": "Conv2D", "input": ["StatefulPartitionedCall/model/tf.concat_2/concat", "StatefulPartitionedCall/model/conv2d_39/Conv2D/ReadVariableOp"], "device": "/device:CPU:0", "attr": {"dilations": {"list": {"i": ["1", "1", "1", "1"]}}, "explicit_paddings": {"list": {}}, "use_cudnn_on_gpu": {"b": true}, "padding": {"s": "VkFMSUQ="}, "strides": {"list": {"i": ["1", "1", "1", "1"]}}, "T": {"type": "DT_FLOAT"}, "data_format": {"s": "TkhXQw=="}}}, {"name": "StatefulPartitionedCall/model/tf.math.add_66/Add", "op": "AddV2", "input": ["StatefulPartitionedCall/model/conv2d_39/Conv2D", "StatefulPartitionedCall/model/tf.math.add_66/Add/y"], "attr": {"T": {"type": "DT_FLOAT"}}}, {"name": "StatefulPartitionedCall/model/p_re_lu_79/Relu", "op": "Prelu", "input": ["StatefulPartitionedCall/model/tf.math.add_66/Add", "StatefulPartitionedCall/model/p_re_lu_79/Neg"]}, {"name": "StatefulPartitionedCall/model/zero_padding2d_20/Pad", "op": "Pad", "input": ["StatefulPartitionedCall/model/p_re_lu_79/Relu", "StatefulPartitionedCall/model/zero_padding2d_20/Pad/paddings"], "attr": {"T": {"type": "DT_FLOAT"}, "Tpaddings": {"type": "DT_INT32"}}}, {"name": "StatefulPartitionedCall/model/conv2d_40/Conv2D", "op": "Conv2D", "input": ["StatefulPartitionedCall/model/zero_padding2d_20/Pad", "StatefulPartitionedCall/model/conv2d_40/Conv2D/ReadVariableOp"], "device": "/device:CPU:0", "attr": {"strides": {"list": {"i": ["1", "1", "1", "1"]}}, "data_format": {"s": "TkhXQw=="}, "dilations": {"list": {"i": ["1", "1", "1", "1"]}}, "T": {"type": "DT_FLOAT"}, "explicit_paddings": {"list": {}}, "padding": {"s": "VkFMSUQ="}, "use_cudnn_on_gpu": {"b": true}}}, {"name": "StatefulPartitionedCall/model/tf.math.add_67/Add", "op": "AddV2", "input": ["StatefulPartitionedCall/model/conv2d_40/Conv2D", "StatefulPartitionedCall/model/tf.math.add_67/Add/y"], "attr": {"T": {"type": "DT_FLOAT"}}}, {"name": "StatefulPartitionedCall/model/p_re_lu_81/Relu", "op": "Prelu", "input": ["StatefulPartitionedCall/model/tf.math.add_67/Add", "StatefulPartitionedCall/model/p_re_lu_81/Neg"]}, {"name": "StatefulPartitionedCall/model/lambda_2/resize/ResizeBilinear", "op": "ResizeBilinear", "input": ["StatefulPartitionedCall/model/p_re_lu_81/Relu", "StatefulPartitionedCall/model/lambda_2/resize/size"], "attr": {"half_pixel_centers": {"b": true}, "T": {"type": "DT_FLOAT"}, "align_corners": {"b": false}}}, {"name": "StatefulPartitionedCall/model/conv2d_41/Conv2D", "op": "Conv2D", "input": ["StatefulPartitionedCall/model/lambda_2/resize/ResizeBilinear", "StatefulPartitionedCall/model/conv2d_41/Conv2D/ReadVariableOp"], "device": "/device:CPU:0", "attr": {"use_cudnn_on_gpu": {"b": true}, "explicit_paddings": {"list": {}}, "data_format": {"s": "TkhXQw=="}, "padding": {"s": "VkFMSUQ="}, "dilations": {"list": {"i": ["1", "1", "1", "1"]}}, "T": {"type": "DT_FLOAT"}, "strides": {"list": {"i": ["1", "1", "1", "1"]}}}}, {"name": "StatefulPartitionedCall/model/tf.math.add_68/Add", "op": "AddV2", "input": ["StatefulPartitionedCall/model/conv2d_41/Conv2D", "StatefulPartitionedCall/model/tf.math.add_68/Add/y"], "attr": {"T": {"type": "DT_FLOAT"}}}, {"name": "Identity", "op": "Identity", "input": ["StatefulPartitionedCall/model/tf.math.add_68/Add"], "attr": {"T": {"type": "DT_FLOAT"}}}], "library": {}, "versions": {"producer": 808}}, "weightsManifest": [{"paths": ["group1-shard1of4.bin", "group1-shard2of4.bin", "group1-shard3of4.bin", "group1-shard4of4.bin"], "weights": [{"name": "StatefulPartitionedCall/model/p_re_lu_81/Neg", "shape": [1, 1, 256], "dtype": "float32"}, {"name": "StatefulPartitionedCall/model/p_re_lu_79/Neg", "shape": [1, 1, 48], "dtype": "float32"}, {"name": "StatefulPartitionedCall/model/p_re_lu_77/Neg", "shape": [1, 1, 256], "dtype": "float32"}, {"name": "StatefulPartitionedCall/model/p_re_lu_75/Neg", "shape": [1, 1, 64], "dtype": "float32"}, {"name": "StatefulPartitionedCall/model/p_re_lu_73/Neg", "shape": [1, 1, 256], "dtype": "float32"}, {"name": "StatefulPartitionedCall/model/p_re_lu_71/Neg", "shape": [1, 1, 96], "dtype": "float32"}, {"name": "StatefulPartitionedCall/model/p_re_lu_69/Neg", "shape": [1, 1, 2048], "dtype": "float32"}, {"name": "StatefulPartitionedCall/model/p_re_lu_67/Neg", "shape": [1, 1, 960], "dtype": "float32"}, {"name": "StatefulPartitionedCall/model/p_re_lu_65/Neg", "shape": [1, 1, 960], "dtype": "float32"}, {"name": "StatefulPartitionedCall/model/p_re_lu_63/Neg", "shape": [1, 1, 960], "dtype": "float32"}, {"name": "StatefulPartitionedCall/model/p_re_lu_61/Neg", "shape": [1, 1, 960], "dtype": "float32"}, {"name": "StatefulPartitionedCall/model/p_re_lu_59/Neg", "shape": [1, 1, 960], "dtype": "float32"}, {"name": "StatefulPartitionedCall/model/p_re_lu_57/Neg", "shape": [1, 1, 960], "dtype": "float32"}, {"name": "StatefulPartitionedCall/model/p_re_lu_55/Neg", "shape": [1, 1, 576], "dtype": "float32"}, {"name": "StatefulPartitionedCall/model/p_re_lu_53/Neg", "shape": [1, 1, 576], "dtype": "float32"}, {"name": "StatefulPartitionedCall/model/p_re_lu_51/Neg", "shape": [1, 1, 576], "dtype": "float32"}, {"name": "StatefulPartitionedCall/model/p_re_lu_49/Neg", "shape": [1, 1, 576], "dtype": "float32"}, {"name": "StatefulPartitionedCall/model/p_re_lu_47/Neg", "shape": [1, 1, 576], "dtype": "float32"}, {"name": "StatefulPartitionedCall/model/p_re_lu_45/Neg", "shape": [1, 1, 576], "dtype": "float32"}, {"name": "StatefulPartitionedCall/model/p_re_lu_43/Neg", "shape": [1, 1, 384], "dtype": "float32"}, {"name": "StatefulPartitionedCall/model/p_re_lu_41/Neg", "shape": [1, 1, 384], "dtype": "float32"}, {"name": "StatefulPartitionedCall/model/p_re_lu_39/Neg", "shape": [1, 1, 384], "dtype": "float32"}, {"name": "StatefulPartitionedCall/model/p_re_lu_37/Neg", "shape": [1, 1, 384], "dtype": "float32"}, {"name": "StatefulPartitionedCall/model/p_re_lu_35/Neg", "shape": [1, 1, 384], "dtype": "float32"}, {"name": "StatefulPartitionedCall/model/p_re_lu_33/Neg", "shape": [1, 1, 384], "dtype": "float32"}, {"name": "StatefulPartitionedCall/model/p_re_lu_31/Neg", "shape": [1, 1, 384], "dtype": "float32"}, {"name": "StatefulPartitionedCall/model/p_re_lu_29/Neg", "shape": [1, 1, 384], "dtype": "float32"}, {"name": "StatefulPartitionedCall/model/p_re_lu_27/Neg", "shape": [1, 1, 288], "dtype": "float32"}, {"name": "StatefulPartitionedCall/model/p_re_lu_25/Neg", "shape": [1, 1, 288], "dtype": "float32"}, {"name": "StatefulPartitionedCall/model/p_re_lu_23/Neg", "shape": [1, 1, 288], "dtype": "float32"}, {"name": "StatefulPartitionedCall/model/p_re_lu_21/Neg", "shape": [1, 1, 288], "dtype": "float32"}, {"name": "StatefulPartitionedCall/model/p_re_lu_19/Neg", "shape": [1, 1, 288], "dtype": "float32"}, {"name": "StatefulPartitionedCall/model/p_re_lu_17/Neg", "shape": [1, 1, 288], "dtype": "float32"}, {"name": "StatefulPartitionedCall/model/p_re_lu_15/Neg", "shape": [1, 1, 288], "dtype": "float32"}, {"name": "StatefulPartitionedCall/model/p_re_lu_13/Neg", "shape": [1, 1, 288], "dtype": "float32"}, {"name": "StatefulPartitionedCall/model/p_re_lu_11/Neg", "shape": [1, 1, 288], "dtype": "float32"}, {"name": "StatefulPartitionedCall/model/p_re_lu_9/Neg", "shape": [1, 1, 288], "dtype": "float32"}, {"name": "StatefulPartitionedCall/model/p_re_lu_7/Neg", "shape": [1, 1, 384], "dtype": "float32"}, {"name": "StatefulPartitionedCall/model/p_re_lu_5/Neg", "shape": [1, 1, 384], "dtype": "float32"}, {"name": "StatefulPartitionedCall/model/p_re_lu_3/Neg", "shape": [1, 1, 48], "dtype": "float32"}, {"name": "StatefulPartitionedCall/model/p_re_lu_1/Neg", "shape": [1, 1, 48], "dtype": "float32"}, {"name": "StatefulPartitionedCall/model/zero_padding2d/Pad/paddings", "shape": [4, 2], "dtype": "int32"}, {"name": "StatefulPartitionedCall/model/conv2d/Conv2D/ReadVariableOp", "shape": [3, 3, 3, 48], "dtype": "float32"}, {"name": "StatefulPartitionedCall/model/tf.math.add/Add/y", "shape": [48], "dtype": "float32"}, {"name": "StatefulPartitionedCall/model/zero_padding2d_1/Pad/paddings", "shape": [4, 2], "dtype": "int32"}, {"name": "StatefulPartitionedCall/model/depthwise_conv2d/depthwise/ReadVariableOp", "shape": [3, 3, 48, 1], "dtype": "float32"}, {"name": "StatefulPartitionedCall/model/tf.math.add_1/Add/y", "shape": [48], "dtype": "float32"}, {"name": "StatefulPartitionedCall/model/conv2d_1/Conv2D/ReadVariableOp", "shape": [1, 1, 48, 64], "dtype": "float32"}, {"name": "StatefulPartitionedCall/model/tf.math.add_2/Add/y", "shape": [64], "dtype": "float32"}, {"name": "StatefulPartitionedCall/model/conv2d_2/Conv2D/ReadVariableOp", "shape": [1, 1, 64, 384], "dtype": "float32"}, {"name": "StatefulPartitionedCall/model/tf.math.add_3/Add/y", "shape": [384], "dtype": "float32"}, {"name": "StatefulPartitionedCall/model/zero_padding2d_2/Pad/paddings", "shape": [4, 2], "dtype": "int32"}, {"name": "StatefulPartitionedCall/model/depthwise_conv2d_1/depthwise/ReadVariableOp", "shape": [3, 3, 384, 1], "dtype": "float32"}, {"name": "StatefulPartitionedCall/model/tf.math.add_4/Add/y", "shape": [384], "dtype": "float32"}, {"name": "StatefulPartitionedCall/model/conv2d_3/Conv2D/ReadVariableOp", "shape": [1, 1, 384, 48], "dtype": "float32"}, {"name": "StatefulPartitionedCall/model/tf.math.add_5/Add/y", "shape": [48], "dtype": "float32"}, {"name": "StatefulPartitionedCall/model/conv2d_4/Conv2D/ReadVariableOp", "shape": [1, 1, 48, 288], "dtype": "float32"}, {"name": "StatefulPartitionedCall/model/tf.math.add_6/Add/y", "shape": [288], "dtype": "float32"}, {"name": "StatefulPartitionedCall/model/zero_padding2d_3/Pad/paddings", "shape": [4, 2], "dtype": "int32"}, {"name": "StatefulPartitionedCall/model/depthwise_conv2d_2/depthwise/ReadVariableOp", "shape": [3, 3, 288, 1], "dtype": "float32"}, {"name": "StatefulPartitionedCall/model/tf.math.add_7/Add/y", "shape": [288], "dtype": "float32"}, {"name": "StatefulPartitionedCall/model/conv2d_5/Conv2D/ReadVariableOp", "shape": [1, 1, 288, 48], "dtype": "float32"}, {"name": "StatefulPartitionedCall/model/tf.math.add_8/Add/y", "shape": [48], "dtype": "float32"}, {"name": "StatefulPartitionedCall/model/conv2d_6/Conv2D/ReadVariableOp", "shape": [1, 1, 48, 288], "dtype": "float32"}, {"name": "StatefulPartitionedCall/model/tf.math.add_10/Add/y", "shape": [288], "dtype": "float32"}, {"name": "StatefulPartitionedCall/model/zero_padding2d_4/Pad/paddings", "shape": [4, 2], "dtype": "int32"}, {"name": "StatefulPartitionedCall/model/depthwise_conv2d_3/depthwise/ReadVariableOp", "shape": [3, 3, 288, 1], "dtype": "float32"}, {"name": "StatefulPartitionedCall/model/tf.math.add_11/Add/y", "shape": [288], "dtype": "float32"}, {"name": "StatefulPartitionedCall/model/conv2d_7/Conv2D/ReadVariableOp", "shape": [1, 1, 288, 48], "dtype": "float32"}, {"name": "StatefulPartitionedCall/model/tf.math.add_12/Add/y", "shape": [48], "dtype": "float32"}, {"name": "StatefulPartitionedCall/model/conv2d_8/Conv2D/ReadVariableOp", "shape": [1, 1, 48, 288], "dtype": "float32"}, {"name": "StatefulPartitionedCall/model/tf.math.add_13/Add/y", "shape": [288], "dtype": "float32"}, {"name": "StatefulPartitionedCall/model/zero_padding2d_5/Pad/paddings", "shape": [4, 2], "dtype": "int32"}, {"name": "StatefulPartitionedCall/model/depthwise_conv2d_4/depthwise/ReadVariableOp", "shape": [3, 3, 288, 1], "dtype": "float32"}, {"name": "StatefulPartitionedCall/model/tf.math.add_14/Add/y", "shape": [288], "dtype": "float32"}, {"name": "StatefulPartitionedCall/model/conv2d_9/Conv2D/ReadVariableOp", "shape": [1, 1, 288, 48], "dtype": "float32"}, {"name": "StatefulPartitionedCall/model/tf.math.add_15/Add/y", "shape": [48], "dtype": "float32"}, {"name": "StatefulPartitionedCall/model/conv2d_10/Conv2D/ReadVariableOp", "shape": [1, 1, 48, 288], "dtype": "float32"}, {"name": "StatefulPartitionedCall/model/tf.math.add_17/Add/y", "shape": [288], "dtype": "float32"}, {"name": "StatefulPartitionedCall/model/zero_padding2d_6/Pad/paddings", "shape": [4, 2], "dtype": "int32"}, {"name": "StatefulPartitionedCall/model/depthwise_conv2d_5/depthwise/ReadVariableOp", "shape": [3, 3, 288, 1], "dtype": "float32"}, {"name": "StatefulPartitionedCall/model/tf.math.add_18/Add/y", "shape": [288], "dtype": "float32"}, {"name": "StatefulPartitionedCall/model/conv2d_11/Conv2D/ReadVariableOp", "shape": [1, 1, 288, 48], "dtype": "float32"}, {"name": "StatefulPartitionedCall/model/tf.math.add_19/Add/y", "shape": [48], "dtype": "float32"}, {"name": "StatefulPartitionedCall/model/conv2d_12/Conv2D/ReadVariableOp", "shape": [1, 1, 48, 288], "dtype": "float32"}, {"name": "StatefulPartitionedCall/model/tf.math.add_21/Add/y", "shape": [288], "dtype": "float32"}, {"name": "StatefulPartitionedCall/model/zero_padding2d_7/Pad/paddings", "shape": [4, 2], "dtype": "int32"}, {"name": "StatefulPartitionedCall/model/depthwise_conv2d_6/depthwise/ReadVariableOp", "shape": [3, 3, 288, 1], "dtype": "float32"}, {"name": "StatefulPartitionedCall/model/tf.math.add_22/Add/y", "shape": [288], "dtype": "float32"}, {"name": "StatefulPartitionedCall/model/conv2d_13/Conv2D/ReadVariableOp", "shape": [1, 1, 288, 64], "dtype": "float32"}, {"name": "StatefulPartitionedCall/model/tf.math.add_23/Add/y", "shape": [64], "dtype": "float32"}, {"name": "StatefulPartitionedCall/model/conv2d_14/Conv2D/ReadVariableOp", "shape": [1, 1, 64, 384], "dtype": "float32"}, {"name": "StatefulPartitionedCall/model/tf.math.add_24/Add/y", "shape": [384], "dtype": "float32"}, {"name": "StatefulPartitionedCall/model/zero_padding2d_8/Pad/paddings", "shape": [4, 2], "dtype": "int32"}, {"name": "StatefulPartitionedCall/model/depthwise_conv2d_7/depthwise/ReadVariableOp", "shape": [3, 3, 384, 1], "dtype": "float32"}, {"name": "StatefulPartitionedCall/model/tf.math.add_25/Add/y", "shape": [384], "dtype": "float32"}, {"name": "StatefulPartitionedCall/model/conv2d_15/Conv2D/ReadVariableOp", "shape": [1, 1, 384, 64], "dtype": "float32"}, {"name": "StatefulPartitionedCall/model/tf.math.add_26/Add/y", "shape": [64], "dtype": "float32"}, {"name": "StatefulPartitionedCall/model/conv2d_16/Conv2D/ReadVariableOp", "shape": [1, 1, 64, 384], "dtype": "float32"}, {"name": "StatefulPartitionedCall/model/tf.math.add_28/Add/y", "shape": [384], "dtype": "float32"}, {"name": "StatefulPartitionedCall/model/zero_padding2d_9/Pad/paddings", "shape": [4, 2], "dtype": "int32"}, {"name": "StatefulPartitionedCall/model/depthwise_conv2d_8/depthwise/ReadVariableOp", "shape": [3, 3, 384, 1], "dtype": "float32"}, {"name": "StatefulPartitionedCall/model/tf.math.add_29/Add/y", "shape": [384], "dtype": "float32"}, {"name": "StatefulPartitionedCall/model/conv2d_17/Conv2D/ReadVariableOp", "shape": [1, 1, 384, 64], "dtype": "float32"}, {"name": "StatefulPartitionedCall/model/tf.math.add_30/Add/y", "shape": [64], "dtype": "float32"}, {"name": "StatefulPartitionedCall/model/conv2d_18/Conv2D/ReadVariableOp", "shape": [1, 1, 64, 384], "dtype": "float32"}, {"name": "StatefulPartitionedCall/model/tf.math.add_32/Add/y", "shape": [384], "dtype": "float32"}, {"name": "StatefulPartitionedCall/model/zero_padding2d_10/Pad/paddings", "shape": [4, 2], "dtype": "int32"}, {"name": "StatefulPartitionedCall/model/depthwise_conv2d_9/depthwise/ReadVariableOp", "shape": [3, 3, 384, 1], "dtype": "float32"}, {"name": "StatefulPartitionedCall/model/tf.math.add_33/Add/y", "shape": [384], "dtype": "float32"}, {"name": "StatefulPartitionedCall/model/conv2d_19/Conv2D/ReadVariableOp", "shape": [1, 1, 384, 64], "dtype": "float32"}, {"name": "StatefulPartitionedCall/model/tf.math.add_34/Add/y", "shape": [64], "dtype": "float32"}, {"name": "StatefulPartitionedCall/model/conv2d_20/Conv2D/ReadVariableOp", "shape": [1, 1, 64, 384], "dtype": "float32"}, {"name": "StatefulPartitionedCall/model/tf.math.add_36/Add/y", "shape": [384], "dtype": "float32"}, {"name": "StatefulPartitionedCall/model/zero_padding2d_11/Pad/paddings", "shape": [4, 2], "dtype": "int32"}, {"name": "StatefulPartitionedCall/model/depthwise_conv2d_10/depthwise/ReadVariableOp", "shape": [3, 3, 384, 1], "dtype": "float32"}, {"name": "StatefulPartitionedCall/model/tf.math.add_37/Add/y", "shape": [384], "dtype": "float32"}, {"name": "StatefulPartitionedCall/model/conv2d_21/Conv2D/ReadVariableOp", "shape": [1, 1, 384, 96], "dtype": "float32"}, {"name": "StatefulPartitionedCall/model/tf.math.add_38/Add/y", "shape": [96], "dtype": "float32"}, {"name": "StatefulPartitionedCall/model/conv2d_22/Conv2D/ReadVariableOp", "shape": [1, 1, 96, 576], "dtype": "float32"}, {"name": "StatefulPartitionedCall/model/tf.math.add_39/Add/y", "shape": [576], "dtype": "float32"}, {"name": "StatefulPartitionedCall/model/zero_padding2d_12/Pad/paddings", "shape": [4, 2], "dtype": "int32"}, {"name": "StatefulPartitionedCall/model/depthwise_conv2d_11/depthwise/ReadVariableOp", "shape": [3, 3, 576, 1], "dtype": "float32"}, {"name": "StatefulPartitionedCall/model/tf.math.add_40/Add/y", "shape": [576], "dtype": "float32"}, {"name": "StatefulPartitionedCall/model/conv2d_23/Conv2D/ReadVariableOp", "shape": [1, 1, 576, 96], "dtype": "float32"}, {"name": "StatefulPartitionedCall/model/tf.math.add_41/Add/y", "shape": [96], "dtype": "float32"}, {"name": "StatefulPartitionedCall/model/conv2d_24/Conv2D/ReadVariableOp", "shape": [1, 1, 96, 576], "dtype": "float32"}, {"name": "StatefulPartitionedCall/model/tf.math.add_43/Add/y", "shape": [576], "dtype": "float32"}, {"name": "StatefulPartitionedCall/model/zero_padding2d_13/Pad/paddings", "shape": [4, 2], "dtype": "int32"}, {"name": "StatefulPartitionedCall/model/depthwise_conv2d_12/depthwise/ReadVariableOp", "shape": [3, 3, 576, 1], "dtype": "float32"}, {"name": "StatefulPartitionedCall/model/tf.math.add_44/Add/y", "shape": [576], "dtype": "float32"}, {"name": "StatefulPartitionedCall/model/conv2d_25/Conv2D/ReadVariableOp", "shape": [1, 1, 576, 96], "dtype": "float32"}, {"name": "StatefulPartitionedCall/model/tf.math.add_45/Add/y", "shape": [96], "dtype": "float32"}, {"name": "StatefulPartitionedCall/model/conv2d_26/Conv2D/ReadVariableOp", "shape": [1, 1, 96, 576], "dtype": "float32"}, {"name": "StatefulPartitionedCall/model/tf.math.add_47/Add/y", "shape": [576], "dtype": "float32"}, {"name": "StatefulPartitionedCall/model/zero_padding2d_14/Pad/paddings", "shape": [4, 2], "dtype": "int32"}, {"name": "StatefulPartitionedCall/model/depthwise_conv2d_13/depthwise/ReadVariableOp", "shape": [3, 3, 576, 1], "dtype": "float32"}, {"name": "StatefulPartitionedCall/model/tf.math.add_48/Add/y", "shape": [576], "dtype": "float32"}, {"name": "StatefulPartitionedCall/model/conv2d_27/Conv2D/ReadVariableOp", "shape": [1, 1, 576, 160], "dtype": "float32"}, {"name": "StatefulPartitionedCall/model/tf.math.add_49/Add/y", "shape": [160], "dtype": "float32"}, {"name": "StatefulPartitionedCall/model/conv2d_28/Conv2D/ReadVariableOp", "shape": [1, 1, 160, 960], "dtype": "float32"}, {"name": "StatefulPartitionedCall/model/tf.math.add_50/Add/y", "shape": [960], "dtype": "float32"}, {"name": "StatefulPartitionedCall/model/zero_padding2d_15/Pad/paddings", "shape": [4, 2], "dtype": "int32"}, {"name": "StatefulPartitionedCall/model/depthwise_conv2d_14/depthwise/ReadVariableOp", "shape": [3, 3, 960, 1], "dtype": "float32"}, {"name": "StatefulPartitionedCall/model/tf.math.add_51/Add/y", "shape": [960], "dtype": "float32"}, {"name": "StatefulPartitionedCall/model/conv2d_29/Conv2D/ReadVariableOp", "shape": [1, 1, 960, 160], "dtype": "float32"}, {"name": "StatefulPartitionedCall/model/tf.math.add_52/Add/y", "shape": [160], "dtype": "float32"}, {"name": "StatefulPartitionedCall/model/conv2d_30/Conv2D/ReadVariableOp", "shape": [1, 1, 160, 960], "dtype": "float32"}, {"name": "StatefulPartitionedCall/model/tf.math.add_54/Add/y", "shape": [960], "dtype": "float32"}, {"name": "StatefulPartitionedCall/model/zero_padding2d_16/Pad/paddings", "shape": [4, 2], "dtype": "int32"}, {"name": "StatefulPartitionedCall/model/depthwise_conv2d_15/depthwise/ReadVariableOp", "shape": [3, 3, 960, 1], "dtype": "float32"}, {"name": "StatefulPartitionedCall/model/tf.math.add_55/Add/y", "shape": [960], "dtype": "float32"}, {"name": "StatefulPartitionedCall/model/conv2d_31/Conv2D/ReadVariableOp", "shape": [1, 1, 960, 160], "dtype": "float32"}, {"name": "StatefulPartitionedCall/model/tf.math.add_56/Add/y", "shape": [160], "dtype": "float32"}, {"name": "StatefulPartitionedCall/model/conv2d_32/Conv2D/ReadVariableOp", "shape": [1, 1, 160, 960], "dtype": "float32"}, {"name": "StatefulPartitionedCall/model/tf.math.add_58/Add/y", "shape": [960], "dtype": "float32"}, {"name": "StatefulPartitionedCall/model/zero_padding2d_17/Pad/paddings", "shape": [4, 2], "dtype": "int32"}, {"name": "StatefulPartitionedCall/model/depthwise_conv2d_16/depthwise/ReadVariableOp", "shape": [3, 3, 960, 1], "dtype": "float32"}, {"name": "StatefulPartitionedCall/model/tf.math.add_59/Add/y", "shape": [960], "dtype": "float32"}, {"name": "StatefulPartitionedCall/model/conv2d_33/Conv2D/ReadVariableOp", "shape": [1, 1, 960, 320], "dtype": "float32"}, {"name": "StatefulPartitionedCall/model/tf.math.add_60/Add/y", "shape": [320], "dtype": "float32"}, {"name": "StatefulPartitionedCall/model/conv2d_34/Conv2D/ReadVariableOp", "shape": [1, 1, 320, 2048], "dtype": "float32"}, {"name": "StatefulPartitionedCall/model/tf.math.add_61/Add/y", "shape": [2048], "dtype": "float32"}, {"name": "StatefulPartitionedCall/model/tf.concat/concat/axis", "shape": [], "dtype": "int32"}, {"name": "StatefulPartitionedCall/model/conv2d_35/Conv2D/ReadVariableOp", "shape": [1, 1, 2144, 96], "dtype": "float32"}, {"name": "StatefulPartitionedCall/model/tf.math.add_62/Add/y", "shape": [96], "dtype": "float32"}, {"name": "StatefulPartitionedCall/model/zero_padding2d_18/Pad/paddings", "shape": [4, 2], "dtype": "int32"}, {"name": "StatefulPartitionedCall/model/conv2d_36/Conv2D/ReadVariableOp", "shape": [3, 3, 96, 256], "dtype": "float32"}, {"name": "StatefulPartitionedCall/model/tf.math.add_63/Add/y", "shape": [256], "dtype": "float32"}, {"name": "StatefulPartitionedCall/model/lambda/resize/size", "shape": [2], "dtype": "int32"}, {"name": "StatefulPartitionedCall/model/tf.concat_1/concat/axis", "shape": [], "dtype": "int32"}, {"name": "StatefulPartitionedCall/model/conv2d_37/Conv2D/ReadVariableOp", "shape": [1, 1, 320, 64], "dtype": "float32"}, {"name": "StatefulPartitionedCall/model/tf.math.add_64/Add/y", "shape": [64], "dtype": "float32"}, {"name": "StatefulPartitionedCall/model/zero_padding2d_19/Pad/paddings", "shape": [4, 2], "dtype": "int32"}, {"name": "StatefulPartitionedCall/model/conv2d_38/Conv2D/ReadVariableOp", "shape": [3, 3, 64, 256], "dtype": "float32"}, {"name": "StatefulPartitionedCall/model/tf.math.add_65/Add/y", "shape": [256], "dtype": "float32"}, {"name": "StatefulPartitionedCall/model/lambda_1/resize/size", "shape": [2], "dtype": "int32"}, {"name": "StatefulPartitionedCall/model/tf.concat_2/concat/axis", "shape": [], "dtype": "int32"}, {"name": "StatefulPartitionedCall/model/conv2d_39/Conv2D/ReadVariableOp", "shape": [1, 1, 304, 48], "dtype": "float32"}, {"name": "StatefulPartitionedCall/model/tf.math.add_66/Add/y", "shape": [48], "dtype": "float32"}, {"name": "StatefulPartitionedCall/model/zero_padding2d_20/Pad/paddings", "shape": [4, 2], "dtype": "int32"}, {"name": "StatefulPartitionedCall/model/conv2d_40/Conv2D/ReadVariableOp", "shape": [3, 3, 48, 256], "dtype": "float32"}, {"name": "StatefulPartitionedCall/model/tf.math.add_67/Add/y", "shape": [256], "dtype": "float32"}, {"name": "StatefulPartitionedCall/model/lambda_2/resize/size", "shape": [2], "dtype": "int32"}, {"name": "StatefulPartitionedCall/model/conv2d_41/Conv2D/ReadVariableOp", "shape": [1, 1, 256, 672], "dtype": "float32"}, {"name": "StatefulPartitionedCall/model/tf.math.add_68/Add/y", "shape": [672], "dtype": "float32"}]}]}